circular_cylinder/Train/neural_net_2l/models_1/0.001_nn_regression.pth (torch, 2761 bytes, 5 tensors)

hid1.weight f4 [10, 3]
0	0x3ce65712	0.02811769
1	0xbd89a48c	-0.06720838
2	0x3e23fcd4	0.16014415
3	0xbc4d159a	-0.012517357
4	0x3d9b85e5	0.07593898
5	0xbe35ff4c	-0.1777317
6	0x3cf9f518	0.030512378
7	0xbd8251f3	-0.06363287
8	0x3e1cdd1d	0.15318723
9	0xbcf492d1	-0.029855164
10	0x3d8566cd	0.06513748
11	0xbe1fd508	-0.15608609
12	0xbcfc513b	-0.030800452
13	0x3d80d40b	0.06290444
14	0xbe1b6c28	-0.15177977
15	0xbcee0b2b	-0.02905806
16	0x3d87d3b1	0.06632174
17	0xbe22307d	-0.1583881
18	0x3cf0e031	0.029403778
19	0xbd86f74d	-0.06590138
20	0x3e21587c	0.1575641
21	0x3cecb5bf	0.028895257
22	0xbd882ddf	-0.06649374
23	0x3e22894c	0.15872687
24	0x3c950391	0.018190177
25	0xbd95e600	-0.0731926
26	0x3e305492	0.17219761
27	0xbd32e2ca	-0.043673314
28	0xbfb100a1	-1.3828317
29	0xbe61e486	-0.22059831

hid1.bias f4 [10]
0	0xbccc7b3f	-0.024961112
1	0x3cce4b44	0.025182374
2	0xbcbe4f1e	-0.023231085
3	0x3cc53c92	0.024076734
4	0x3cbb1934	0.022839166
5	0x3cca0bd0	0.024663836
6	0xbcc88bb7	-0.024480684
7	0xbcca9647	-0.024729861
8	0xbcd0855a	-0.025454212
9	0x3e4383a2	0.19093183

hid2.weight f4 [10, 10]
0	0x3d7f84e8	0.06238261
1	0xbd8b5197	-0.068026714
2	0x3d754e0c	0.059888884
3	0xbd79ae59	-0.060957287
4	0xbd732cc3	-0.05936886
5	0xbd7d0f93	-0.06178243
6	0x3d7bdfc7	0.061492708
7	0x3d7d8aa1	0.061899785
8	0x3d87b90f	0.06627094
9	0x3eba8030	0.36425924
10	0xbd7e889e	-0.062142007
11	0x3d8ac6b2	0.067761794
12	0xbd745cdc	-0.05965887
13	0x3d78b87d	0.060722817
14	0x3d723db9	0.059140895
15	0x3d7c15ee	0.06154435
16	0xbd7ae78b	-0.061255973
17	0xbd7c909b	-0.061661344
18	0xbd87320f	-0.06601345
19	0xbeb9a6d2	-0.36260086
20	0xbd847b29	-0.064688034
21	0x3d90864e	0.070568666
22	0xbd7e55bc	-0.06209348
23	0x3d817186	0.06320481
24	0x3d7c1e71	0.06155247
25	0x3d83338f	0.064063184
26	0xbd829576	-0.06376164
27	0xbd8373ac	-0.06418547
28	0xbd8cc712	-0.06873907
29	0xbec2bbaa	-0.380338
30	0x3d4ef565	0.050526995
31	0xbd614e34	-0.05500622
32	0x3d46d043	0.048538458
33	0xbd4a4e93	-0.04939134
34	0xbd451cf7	-0.048123326
35	0xbd4d0074	-0.05004926
36	0x3d4c0e65	0.049818415
37	0x3d4d627c	0.05014275
38	0x3d5b999e	0.053613298
39	0x3e928651	0.286181
40	0x3d583371	0.052783433
41	0xbd6b6e97	-0.057478514
42	0x3d4fab33	0.050700378
43	0xbd5353d4	-0.051593617
44	0xbd4de343	-0.05026556
45	0xbd562683	-0.05228282
46	0x3d5528ef	0.05204099
47	0x3d568d53	0.05238087
48	0x3d657397	0.05601844
49	0x3e99dccb	0.30051264
50	0x3d82816c	0.063723415
51	0xbd8e587c	-0.06950471
52	0x3d7a8eb5	0.061171252
53	0xbd7f0906	-0.062264465
54	0xbd78609f	-0.06063902
55	0xbd813f4a	-0.063108996
56	0x3d80a3de	0.06281255
57	0x3d817e64	0.06322935
58	0x3d8aa973	0.06770601
59	0x3ebf44b6	0.3735711
60	0x3d55511e	0.052079313
61	0xbd684564	-0.0567068
62	0x3d4ce7e3	0.050025832
63	0xbd50833a	-0.050906397
64	0xbd4b266a	-0.04959718
65	0xbd534bbc	-0.051585898
66	0x3d5251b7	0.05134746
67	0x3d53b10b	0.051682513
68	0x3d626052	0.05526764
69	0x3e978f5d	0.29601565
70	0x3d85a3ea	0.06525405
71	0xbd91cdc0	-0.07119322
72	0x3d804695	0.062634625
73	0xbd8292d0	-0.063756585
74	0xbd7e5083	-0.0620885
75	0xbd84592e	-0.06462322
76	0x3d83b9ab	0.06431898
77	0x3d8499e4	0.06474665
78	0x3d8e04f7	0.06934541
79	0x3ec4c7b8	0.38433623
80	0x3d873182	0.0660124
81	0xbd9384db	-0.072030745
82	0x3d81c294	0.06335941
83	0xbd841641	-0.06449557
84	0xbd80a0a0	-0.06280637
85	0xbd85e270	-0.0653733
86	0x3d8540c4	0.06506494
87	0x3d862414	0.0654985
88	0x3d8faefa	0.07015796
89	0x3ec789fd	0.38972464
90	0x3d6e297e	0.05814504
91	0xbd81c4d0	-0.06336367
92	0x3d64b2a1	0.055834416
93	0xbd68c117	-0.05682477
94	0xbd62b90f	-0.055352267
95	0xbd6be2c5	-0.05758931
96	0x3d6ac977	0.057321038
97	0x3d6c54d2	0.05769808
98	0x3d7ce39e	0.06174051
99	0x3eabc98a	0.335522

hid2.bias f4 [10]
0	0xbcc011e9	-0.02344604
1	0x3cc0be2d	0.023528183
2	0x3cb8d980	0.02256465
3	0xbccfe2f8	-0.025376782
4	0xbccf8135	-0.025330165
5	0xbcbc0b02	-0.022954468
6	0xbccfc030	-0.025360197
7	0xbcb6dc15	-0.02232174
8	0xbcb40eb5	-0.02197967
9	0xbcc9b935	-0.024624446

oupt.weight f4 [1, 10]
0	0xbed1c9f3	-0.40974388
1	0x3ed0e08c	0.40796316
2	0x3eda9a40	0.42695808
3	0xbea654ad	-0.32486477
4	0xbeae6344	-0.3406011
5	0xbed6e61f	-0.41972443
6	0xbeabdd1e	-0.33567137
7	0xbedcc9a7	-0.431226
8	0xbedfba33	-0.43696746
9	0xbec1eb7f	-0.37874982
