circular_cylinder/Train/neural_net_2l/models_1/0.0001_nn_regression.pth (torch, 2829 bytes, 5 tensors)

hid1.weight f4 [10, 3]
-0.0916306 0.3891424 -0.06564729 0.048006028 -0.3664316 0.064608656 0.05327719 -1.2138993
0.17523973 -0.09425473 0.38375396 -0.06493113 0.114574425 0.77790153 0.32520828 0.09468498
-0.38188607 0.06452995 -0.08650991 0.388509 -0.06496474 -0.04229754 0.36592957 -0.06628567
0.5232983 0.3911636 0.34044448 -0.23387419 -0.47570458 0.26585937
00000000: d3a8 bbbd ac3d c73e 1672 86bd f8a1 443d
00000010: ec9c bbbe 8b51 843d 2f39 5a3d 0d61 9bbf
00000020: 0b72 333e a008 c1bd 667b c43e 9dfa 84bd
00000030: ffa5 ea3d 8e24 473f b381 a63e 33ea c13d
00000040: 9286 c3be 4728 843d 1c2c b1bd a7ea c63e
00000050: 3c0c 85bd 2f40 2dbd 1f5b bb3e c8c0 87bd
00000060: e1f6 053f 9846 c83e bd4e ae3e b77c 6fbe
00000070: 8d8f f3be b81e 883e

hid1.bias f4 [10]
-0.038172103 0.027045585 0.34152365 -0.039877493 -0.11900451 0.04060247 -0.035959683 -0.026686862
0.096272945 0.017784294
00000000: 5a5a 1cbd b48e dd3c 30dc ae3e 9556 23bd
00000010: a3b8 f3bd c74e 263d 764a 13bd 689e dabc
00000020: c02a c53d 5eb0 913c

hid2.weight f4 [10, 10]
0.07207555 -0.07019935 -0.15177469 0.07114668 -0.045172397 -0.0708081 0.071924284 0.07049186
0.18280968 0.0061223046 -0.06786764 0.06660623 0.14211509 -0.06690656 0.04739129 0.0665614
-0.067812204 -0.066945575 -0.17146125 -0.0021800867 0.35856682 -0.32326883 -1.162878 0.35352376
0.7768571 -0.35168654 0.35723922 0.32065672 0.32114023 -0.4999779 0.06790624 -0.06671643
-0.14249457 0.066933535 -0.04877076 -0.06658412 0.06785982 0.06707049 0.17131196 0.0011745061
0.06790461 -0.06671502 -0.14249131 0.06693188 -0.048769213 -0.066582374 0.06785814 0.06706909
0.17130716 0.0011729599 0.07341279 -0.07129841 -0.15479337 0.07250413 -0.044223424 -0.07217113
0.07322257 0.07156993 0.18648191 0.0076985145 0.06790578 -0.06671608 -0.14249477 0.066933066
-0.048765097 -0.066583626 0.06785931 0.06707017 0.17131066 0.0011732067 0.06724623 -0.06603677
-0.14073303 0.066286705 -0.04699293 -0.06594301 0.06719974 0.06637626 0.16970922 0.0020991913
0.06787193 -0.06656731 -0.14196253 0.06691659 -0.04677946 -0.06657362 0.06781184 0.06689818
0.17158245 0.0027774319 -0.06788685 0.06670001 0.14245223 -0.06691413 0.0487873 0.066564634
-0.06784089 -0.067054324 -0.17125641 -0.0011541743
00000000: 599c 933d adc4 8fbd d36a 1bbe 5ab5 913d
00000010: b106 39bd d603 91bd 0a4d 933d 095e 903d
00000020: 7632 3b3e 9d9d c83b 30fe 8abd d968 883d
00000030: 9e86 113e 4e06 89bd 5f1d 423d 5851 883d
00000040: 20e1 8abd c31a 89bd 8a93 2fbe c9df 0ebb
00000050: 1296 b73e 7e83 a5be 30d9 94bf 1101 b53e
00000060: 1be0 463f 4210 b4be 0fe8 b63e 1e2d a43e
00000070: 7e6c a43e 1afd ffbe 6d12 8b3d a0a2 88bd
00000080: 19ea 11be 7314 893d d9c3 47bd 415d 88bd
00000090: 17fa 8a3d 415c 893d 676c 2f3e e3f1 993a
000000a0: 9211 8b3d e2a1 88bd 3ee9 11be 9513 893d
000000b0: 3ac2 47bd 575c 88bd 35f9 8a3d 855b 893d
000000c0: 256b 2f3e 01be 993a 7259 963d e704 92bd
000000d0: 2782 1ebe 0c7d 943d 9f23 35bd 75ce 93bd
000000e0: b7f5 953d 4193 923d 1df5 3e3e d243 fc3b
000000f0: 3012 8b3d 71a2 88bd 26ea 11be 3414 893d
00000100: e9bd 47bd ff5c 88bd d2f9 8a3d 165c 893d
00000110: 106c 2f3e 49c6 993a 64b8 893d 493e 87bd
00000120: 521c 10be 53c1 873d a97b 40bd 210d 87bd
00000130: 04a0 893d 47f0 873d 41c8 2d3e 9692 093b
00000140: 7000 8b3d 7154 88bd a05e 11be 910b 893d
00000150: d29b 3fbd c057 88bd efe0 8a3d ea01 893d
00000160: 4fb3 2f3e 9305 363b 4308 8bbd 049a 883d
00000170: ffde 113e 460a 89bd 31d5 473d 0a53 883d
00000180: 2af0 8abd c753 89bd d75d 2fbe aa47 97ba

hid2.bias f4 [10]
-0.08629526 0.07563412 -0.02682241 -0.071534075 -0.071530454 -0.090496324 -0.071533166 -0.07574503
-0.0779015 0.071467206
00000000: 92bb b0bd 10e6 9a3d acba dbbc 7580 92bd
00000010: 8f7e 92bd 2356 b9bd fb7f 92bd 3620 9bbd
00000020: d28a 9fbd 665d 923d

oupt.weight f4 [1, 10]
-0.3155401 0.2949976 1.0514755 -0.29523405 -0.29522628 -0.32207063 -0.29523256 -0.29198402
-0.29496297 0.29513872
00000000: 798e a1be ed09 973e c096 863f eb28 97be
00000010: e627 97be 71e6 a4be b928 97be ee7e 95be
00000020: 6305 97be 6c1c 973e
