circular_cylinder/Train/neural_net_2l/models_1/0.0_nn_regression.pth (torch, 2753 bytes, 5 tensors)

hid1.weight f4 [10, 3]
000000 1a 6c 32 41 b0 d9 b8 bf ba 7b f7 40 57 c1 6f bf
       11.151392 -1.4441433 7.7338533 -0.9365439
000010 90 3e e7 3f c1 fb 74 bf ce 46 ac 41 00 ab 0a bf
       1.8065968 -0.95696646 21.534573 -0.54167175
000020 ea 44 be c0 9b cf f9 bd d4 b3 0d 40 57 fe 0e bd
       -5.9459124 -0.12197801 2.2141008 -0.034910526
000030 06 6c db c0 d9 57 9d bf 23 ca 2f 40 08 a7 41 c0
       -6.8569365 -1.2292434 2.7467124 -3.0258198
000040 c8 a5 bb 3e 62 05 48 bf d1 8d 5a 41 7b cc 97 bf
       0.3664992 -0.78133214 13.659623 -1.1859277
000050 6f 3f 08 3e b8 3c 2f c2 72 b9 6b 40 82 9f 83 c0
       0.13305448 -43.809296 3.6831937 -4.113221
000060 e4 a6 58 c0 b9 73 84 c0 a4 1c cb be b7 03 e3 be
       -3.3851862 -4.1391263 -0.3967029 -0.44338772
000070 45 12 b4 bf 31 68 42 3f
       -1.4068075 0.75940233

hid1.bias f4 [10]
000000 fe 6c c9 bf d6 55 53 3e d9 18 77 40 1e 8f d9 be
       -1.5736387 0.20638213 3.8608916 -0.42492002
000010 af b5 13 bf 04 d1 f7 3e b3 0d 2d 3f 5e 4d 4c 3e
       -0.576991 0.48401654 0.6759903 0.19951388
000020 89 65 4d 3e ba c8 92 3c
       0.20058264 0.01791798

hid2.weight f4 [10, 10]
000000 09 33 fc be 3b 60 99 bf 27 ab fd 3e 4f ce 35 bd
       -0.49257687 -1.1982492 0.4954464 -0.044386204
000010 d0 cd f6 bd 6e 55 7f 3f 0d d4 a3 bd b3 46 cb bd
       -0.12050974 0.9973973 -0.0799943 -0.09925594
000020 c4 75 0e be 21 08 72 bf 4c 65 b1 bf 30 7c 92 40
       -0.13912112 -0.94543654 -1.3859038 4.5776596
000030 62 90 18 c0 90 fa 43 3f 3f 24 3a bf 80 5a 03 bf
       -2.3838124 0.76554203 -0.7271156 -0.5130997
000040 d8 49 9f bf 83 fa 8e be a8 a8 0b c0 05 b8 06 bf
       -1.244441 -0.279255 -2.182169 -0.5262454
000050 5e 39 04 be 3c d5 4f bf 5a 76 c0 3e 6b 0c 7e 3f
       -0.12912509 -0.81184745 0.37590295 0.992377
000060 fb 55 17 bd 73 90 4a 3e 11 2a 02 3d 6e a0 03 be
       -0.03694723 0.19781666 0.0317784 -0.12854168
000070 9e e6 3c 3e 19 a2 42 bf da 95 c8 3e 71 d5 d7 bf
       0.18447348 -0.7602859 0.39176828 -1.6862012
000080 ac ca 23 3f 13 d8 70 bf 08 3d 8f bf 7c 4b 9e 3f
       0.6398113 -0.94079703 -1.11905 1.2366786
000090 87 7e ad 3f 44 df f6 be da c7 ff 3d 20 31 25 3f
       1.3554238 -0.48217213 0.124892905 0.64528084
0000a0 1c 60 8c 3f 4a 5d 17 40 55 fd 3c c0 19 35 69 be
       1.096683 2.365069 -2.9529622 -0.22774161
0000b0 9e d6 83 3f 4b 0e 3a bd 75 5c a9 be 17 73 44 40
       1.0299871 -0.045423787 -0.33078352 3.0695245
0000c0 7e d1 1c bf 66 26 2a c0 ab 90 dd 3e 6d 14 d4 3f
       -0.6125716 -2.6585937 0.43274435 1.6568733
0000d0 3e 78 c0 3e 04 d0 86 bd c8 e8 ad 3e 1a 6b c6 be
       0.37591738 -0.065826446 0.3396666 -0.38753587
0000e0 6d 2f a6 bf 45 45 06 bf e2 94 ba 3f e2 ed b6 3f
       -1.2983223 -0.52449447 1.4576685 1.4291346
0000f0 83 9a c7 bf 07 a3 b5 3e a0 3b 43 40 f7 a4 e8 bf
       -1.5594028 0.35475942 3.0505142 -1.8175343
000100 8c 12 b2 bf b5 10 c4 bf ae ec ab 3c 65 0d 60 c0
       -1.391191 -1.5317599 0.020986881 -3.5008175
000110 9e 89 e5 be 59 75 96 40 9b bd af 3f a8 8c e8 be
       -0.44831556 4.7018247 1.3729738 -0.45419812
000120 26 34 68 3f 2d 14 65 3f af 53 09 c0 9f 0e 2c bd
       0.9070457 0.8948391 -2.1457326 -0.04200613
000130 18 57 66 bf 6e 14 e8 3d 92 91 6f 3e e1 94 11 3f
       -0.89976645 0.11332022 0.23395374 0.56867796
000140 b6 2a a9 be fa b4 29 3f ed 04 9e be 14 89 13 3d
       -0.33040398 0.66291773 -0.30863133 0.0360194
000150 25 70 e9 3b fb 41 4b bf af 2c 7e 3f 67 b8 34 3e
       0.0071239644 -0.79397553 0.9928693 0.17648469
000160 71 41 0c bf ee a9 d1 3e b7 7f cc 3e a1 d5 ad 3d
       -0.54787356 0.4094996 0.3994119 0.08488012
000170 d4 f3 19 3f ca fb c5 bd 65 c6 84 bf 85 2b 80 bf
       0.6013768 -0.096671656 -1.0373045 -1.0013281
000180 93 d9 b6 3f 73 67 11 bf 66 5a cf 3f 99 90 4e 3f
       1.4285148 -0.56798476 1.6199462 0.8068939

hid2.bias f4 [10]
000000 42 00 bf 3e c0 cb 32 3f 83 2a ca 3e a4 06 8d be
       0.37304884 0.6984215 0.3948556 -0.2754413
000010 33 7b ec bc a7 be 95 be d0 5b 44 be 6d a6 be 3f
       -0.02886734 -0.2924702 -0.19175649 1.4894539
000020 fa 1a c2 3d 95 c7 24 3f
       0.094778016 0.6436704

oupt.weight f4 [1, 10]
000000 6b 58 5c bf 61 08 f0 3d 32 32 bd 3f c5 f4 2d 3f
       -0.86072415 0.11720348 1.4780943 0.67951614
000010 89 b6 49 bf 19 8d 33 bf 57 8d 2e bf ac 88 ae be
       -0.7879415 -0.7013717 -0.6818442 -0.34088647
000020 cd 92 9a bf 37 8f 3c bf
       -1.207605 -0.7365603
