circular_cylinder/Train/old_models/neural_net/models/0.001_nn_regression.pth (torch, 1859 bytes, 3 tensors)

linear.weight f4 [10, 3]
0	0xbbd4e502	-0.0064970264
1	0x3ed28b57	0.41121933
2	0x3e1fc871	0.15603806
3	0x3e0c4bf1	0.13700844
4	0xbf883d3f	-1.0643691
5	0xbda7bff2	-0.081909075
6	0x3612e108	2.188668e-06
7	0x37692dfc	1.3898589e-05
8	0x37050f4e	7.930981e-06
9	0xbc536d21	-0.012904436
10	0x3cfa9d7e	0.030592676
11	0x3ec91c22	0.39279276
12	0x2e5aed42	4.977819e-11
13	0x2f003725	1.1661123e-10
14	0x304b86d1	7.4042555e-10
15	0x247f75a9	5.5393973e-17
16	0x26216450	5.5994045e-16
17	0x27270b06	2.3181881e-15
18	0x3aa196fd	0.0012328323
19	0xbb72dc95	-0.0037057747
20	0xbbafa198	-0.0053598396
21	0x3bce5718	0.0062970035
22	0x3ea38290	0.3193555
23	0xbec80229	-0.39064148
24	0xb220809d	-9.342469e-09
25	0xb3d224f4	-9.785609e-08
26	0xb29f27ea	-1.8528187e-08
27	0xb52dbbae	-6.472063e-07
28	0xb61cde25	-2.3375117e-06
29	0x3777af2c	1.4763133e-05

linear.bias f4 [10]
0	0x3e49e2cd	0.19715424
1	0x3ef0e67d	0.4705085
2	0xb6f8d4d8	-7.415754e-06
3	0x3d817257	0.06320637
4	0xb04328c4	-7.099852e-10
5	0xa668402f	-8.0578154e-16
6	0xbc4b4c5c	-0.012408342
7	0x3c87947d	0.016550297
8	0x341eee5d	1.4801613e-07
9	0x362e2746	2.595088e-06

oupt.weight f4 [1, 10]
0	0x3ef5d04c	0.4801048
1	0xbf965ea6	-1.1747634
2	0x37391d66	1.1033704e-05
3	0x3ecddd20	0.40207767
4	0xb063671f	-8.2728663e-10
5	0x276035b3	3.1115355e-15
6	0xbaf44c82	-0.0018638524
7	0x3f0107a3	0.5040228
8	0xb399b8b4	-7.158215e-08
9	0x375c2adb	1.3123e-05
