circular_cylinder/Train/old_models/neural_net/models/0.0001_nn_regression.pth (torch, 1859 bytes, 3 tensors)

linear.weight f4 [10, 3]
0	0x3de9554a	0.11393221
1	0x3f8721cb	1.0557188
2	0x3f02f056	0.51147974
3	0x3efdd1b1	0.49574044
4	0xbf0b0db7	-0.543178
5	0x3eb1509f	0.34631822
6	0x333e08a2	4.4245674e-08
7	0x336a2675	5.4517347e-08
8	0xb33d9804	-4.414325e-08
9	0x3e13e686	0.14443406
10	0xbf647604	-0.8924258
11	0xbe6baf64	-0.23016125
12	0x2b2fadbc	6.2413594e-13
13	0xabc62485	-1.4078882e-12
14	0x2b8a904e	9.845542e-13
15	0x810f685c	-2.6339826e-38
16	0x01d0ddbd	7.672531e-38
17	0x82213ebf	-1.1846419e-37
18	0xbdc5211e	-0.09625457
19	0x3f7d78cb	0.9901244
20	0x3f88f272	1.0698988
21	0x1bc44f9d	3.247693e-22
22	0x1babcaad	2.8420553e-22
23	0x9c348cdd	-5.9739066e-22
24	0x3d9e31e9	0.07724363
25	0x3eac95be	0.33707994
26	0x3f836908	1.0266428
27	0xbc8694f1	-0.016428443
28	0xbd3762a1	-0.044771794
29	0x3f8aa679	1.0832053

linear.bias f4 [10]
0	0x3e4a7b39	0.19773568
1	0x3ed05e5d	0.40696993
2	0xb44bfca7	-1.8997763e-07
3	0x3e14b288	0.1452123
4	0xaa030307	-1.1636188e-13
5	0x837545de	-7.2079233e-37
6	0x3e285381	0.16438104
7	0x9cf8f72e	-1.6475158e-21
8	0x3e187827	0.14889584
9	0xbe2c9d74	-0.16856939

oupt.weight f4 [1, 10]
0	0x3f9761b8	1.1826696
1	0xbf658a69	-0.8966432
2	0x339ddee3	7.351425e-08
3	0xbf6f08aa	-0.93372595
4	0xab92f297	-1.0441256e-12
5	0x824b0204	-1.4914663e-37
6	0xbfbabb62	-1.4588435
7	0x9c1a0cc6	-5.0970835e-22
8	0x3f8b7660	1.08955
9	0x3f8bf197	1.0933102
