circular_cylinder/Train/old_models/neural_net/models/0.1_nn_regression.pth (torch, 1795 bytes, 3 tensors)

linear.weight f4 [10, 3]
0	0x39842d89	0.00025210928
1	0x35eece86	1.7792488e-06
2	0xb48be73e	-2.6059018e-07
3	0x3a08ddac	0.000522102
4	0x3c48b788	0.0122507885
5	0xbb146002	-0.0022640233
6	0xbae18dd3	-0.0017208405
7	0x3e02f348	0.12788117
8	0xbd84afde	-0.064788565
9	0xb6ce84f7	-6.1547576e-06
10	0x34a2bacb	3.031076e-07
11	0x3310bd15	3.3699582e-08
12	0xb2a8f671	-1.9669843e-08
13	0x358c5ef1	1.0458444e-06
14	0xb524c971	-6.1387897e-07
15	0x360521ca	1.9838212e-06
16	0x3a0059f4	0.00048962166
17	0xb997985f	-0.0002891449
18	0xba30c814	-0.0006743681
19	0xba2cf5fb	-0.0006597933
20	0x390cdeaa	0.00013434389
21	0x39a30dc0	0.00031100027
22	0x3ef8a393	0.48562297
23	0xbe7ec998	-0.2488159
24	0xb1b3b6bc	-5.23036e-09
25	0xb3e4ea41	-1.0659688e-07
26	0xb3a1e289	-7.538353e-08
27	0xb619ceae	-2.291908e-06
28	0x31dd341f	6.437872e-09
29	0x32b8d3ca	2.151673e-08

linear.bias f4 [10]
0	0xb5fcddae	-1.883998e-06
1	0x3b8480a6	0.0040436564
2	0x3a42a144	0.0007424543
3	0x358dda2d	1.0568816e-06
4	0x34d2287f	3.9145013e-07
5	0x3900628a	0.0001224374
6	0x3a7fca90	0.0009757662
7	0x3d93fb07	0.07225614
8	0xb3b4ed4b	-8.4250665e-08
9	0x336bbdbd	5.4887767e-08

oupt.weight f4 [1, 10]
0	0xb5904879	-1.0749928e-06
1	0x3c49dfd6	0.012321433
2	0x3e0cd7cd	0.13754196
3	0x34a44314	3.0596186e-07
4	0x358d8221	1.0543191e-06
5	0x3a16c5d6	0.0005751526
6	0xb9982955	-0.00029022494
7	0x3f0d5e87	0.5522236
8	0xb406e882	-1.2564308e-07
9	0x33905c95	6.722363e-08
