circular_cylinder/Train/old_models/neural_net/models/0_nn_regression.pth (torch, 1789 bytes, 3 tensors)

linear.weight f4 [10, 3]
0	0xc0159e0d	-2.3377717
1	0xbfade9de	-1.3586996
2	0x3f24fbe8	0.6444688
3	0x40f14e8e	7.540839
4	0xc01a723a	-2.4132218
5	0x3d83084b	0.06398066
6	0x412b82ca	10.719431
7	0xbf214e06	-0.6300968
8	0x3f28c449	0.6592451
9	0xbd90c794	-0.070693165
10	0x3e23fa45	0.16013439
11	0x3ce9527e	0.028481718
12	0x3e57ece3	0.21086459
13	0xbe6664d2	-0.22499397
14	0xbd2c6aa5	-0.04209389
15	0xbd54e627	-0.051977303
16	0x3dab6238	0.08368343
17	0xbb17272b	-0.0023064117
18	0x4143e16c	12.242535
19	0x3f1bfc22	0.609316
20	0x3cf3668b	0.029711982
21	0xc00f6fd2	-2.2412
22	0x3fb69675	1.4264666
23	0xbfdd4228	-1.7285814
24	0x4162308d	14.136853
25	0xbfab6726	-1.3390853
26	0x3f1b5d0f	0.6068887
27	0x3ea0abd7	0.31381103
28	0xbf107bd0	-0.5643892
29	0x3eb74025	0.35791126

linear.bias f4 [10]
0	0x3f834fe0	1.0258751
1	0x3f933fca	1.1503842
2	0x3f6d8a4b	0.92789143
3	0xbf06aaec	-0.52604556
4	0xbf0c87f4	-0.5489495
5	0xbe8e9438	-0.27847457
6	0x3e10576a	0.14095846
7	0x3e3b7b1a	0.18308678
8	0x3ed411f6	0.41419953
9	0xbe895ec8	-0.26830125

oupt.weight f4 [1, 10]
0	0x3f8b4479	1.0880271
1	0xbf98231a	-1.1885712
2	0x3f7ddba0	0.99163246
3	0x3b7568f8	0.00374466
4	0xbe2a97b2	-0.1665943
5	0x3e267266	0.16254577
6	0xbe0d39e3	-0.13791613
7	0x3f49c857	0.7882132
8	0x3e6fe228	0.23426116
9	0xbd0e018b	-0.03466944
