circular_cylinder/Train/old_models/neural_net/models/1.0023052380778996_nn_regression.pth (torch, 1791 bytes, 3 tensors)

linear.weight f4 [10, 3]
00000000: 7bd5 f0ba 008f fe33 7e6c cab3 6501 ad3e
00000010: 876f f236 e84a b8b6 96ec 1a40 0f39 4b38
00000020: cf54 20b8 aadd d32e eafc 9331 0ed0 4835
00000030: 0900 0000 0400 0000 2000 0080 a6be 92a5
00000040: 1aa0 f728 f6e5 b22c 04d3 1c3e 53ba 5736
00000050: 947e 16b6 6961 d1a1 aaba 241b d7b3 089b
00000060: ff4b 053f 6c5a 3837 2219 e2b6 0500 0000
00000070: 0200 0000 0a00 0000
-0.0018374169 1.1853808e-07 -9.4260926e-08 0.33790126 7.2251455e-06 -5.4923476e-06 2.42069 4.845211e-05
-3.8225957e-05 9.6345446e-11 4.307016e-09 7.4808565e-07 1.3e-44 6e-45 -4.5e-44 -2.545615e-16
2.7491942e-14 5.084595e-12 0.15314871 3.2145952e-06 -2.242542e-06 -1.4188175e-18 1.3626076e-22 -1.1307766e-22
0.52069086 1.0988308e-05 -6.7382507e-06 7e-45 3e-45 1.4e-44

linear.bias f4 [10]
00000000: c9b3 7633 5d84 5437 9d0f b338 7e05 4732
00000010: 0600 0080 3c24 c722 27dc a236 431f 4d1a
00000020: c770 8237 0800 0000
5.7439852e-08 1.2667003e-05 8.538293e-05 1.1584573e-08 -8e-45 5.3977423e-18 4.8536053e-06 4.241826e-23
1.5549724e-05 1.1e-44

oupt.weight f4 [1, 10]
00000000: 87b2 ed35 f714 b838 47e3 223a c197 7635
00000010: 0a00 0000 36b3 f92a b40f 1c38 e8d0 cf1c
00000020: c39e 0b39 2100 0080
1.7709834e-06 8.777709e-05 0.00062136765 9.186297e-07 1.4e-44 4.4355638e-13 3.7207923e-05 1.3752112e-21
0.00013315216 -4.6e-44
