circular_cylinder/Train/old_models/neural_net/models/1.023292992280754_nn_regression.pth (torch, 1859 bytes, 3 tensors)

linear.weight f4 [10, 3]
0	0xbe3f642f	-0.18690561
1	0x374895cf	1.1955809e-05
2	0xb717512e	-9.0192025e-06
3	0x4005748a	2.085238
4	0x383367fa	4.277376e-05
5	0xb7fe2e14	-3.0300616e-05
6	0x40be71be	5.9513845
7	0x38f1d597	0.0001153156
8	0xb8b7f5e6	-8.771922e-05
9	0xa40774af	-2.9372294e-17
10	0xa74b9c24	-2.8256553e-15
11	0xa9581518	-4.797993e-14
12	0x0000000c	1.7e-44
13	0x80000008	-1.1e-44
14	0x80000023	-4.9e-44
15	0xaa987c10	-2.708671e-13
16	0x2eddae9c	1.0080933e-10
17	0xb17082d5	-3.4998966e-09
18	0x3fb5aaa0	1.4192696
19	0x37f4c3ec	2.91783e-05
20	0xb7b6f07a	-2.1808071e-05
21	0xb4341165	-1.6770134e-07
22	0x2d899d30	1.5644902e-11
23	0xad632a20	-1.291281e-11
24	0x4025b7d6	2.5893455
25	0x385992c7	5.187353e-05
26	0xb81fc867	-3.8095193e-05
27	0x00000003	4e-45
28	0x00000006	8e-45
29	0x80000007	-1e-44

linear.bias f4 [10]
0	0x36c803f2	5.9609238e-06
1	0x3899df5e	7.337214e-05
2	0x3954f014	0.00020307332
3	0xa7f4ca99	-6.794326e-15
4	0x00000003	4e-45
5	0x2ea9d349	7.722762e-11
6	0x38546645	5.0639985e-05
7	0x2cc4dad7	5.594951e-12
8	0x38be7450	9.081571e-05
9	0x00000004	6e-45

oupt.weight f4 [1, 10]
0	0x39352752	0.00017276153
1	0x3a09760a	0.00052437244
2	0x3ac23c43	0.0014818985
3	0x284453df	1.0898372e-14
4	0x0000000a	1.4e-44
5	0x2f3bcd86	1.7080568e-10
6	0x39b34b6e	0.0003419774
7	0x2f3010c9	1.601307e-10
8	0x3a195588	0.0005849232
9	0x80000021	-4.6e-44
