circular_cylinder/Train/old_models/neural_net/models/1.2589254117941673_nn_regression.pth (torch, 1859 bytes, 3 tensors)

linear.weight f4 [10, 3]
00000000: 962b 42be 1ff3 2537 83bb f8b6 d73e 0640
00000010: 9937 0538 4869 c3b7 3f0c bf40 4864 b738
00000020: a424 89b8 4fd9 bca3 ef3b 94a7 7414 51a9
00000030: 0600 0000 0100 0000 1500 0080 c793 9b2a
00000040: 82da 08ac 61a1 56b1 c3f5 b63f 243d b437
00000050: a615 89b7 b2fd 41b4 fcfd 702d df89 45ad
00000060: ad97 2640 6bc0 2038 9c73 02b8 0500 0080
00000070: 0400 0080 0600 0000
-0.18961939 9.891372e-06 -7.412805e-06 2.0975854 3.176145e-05 -2.3294837e-05 5.970245 8.744799e-05
-6.539494e-05 -2.0475035e-17 -4.114323e-15 -4.6425063e-14 8e-45 1e-45 -3e-44 2.7636072e-13
-1.9448059e-12 -3.1232832e-09 1.429375 2.1486143e-05 -1.6341754e-05 -1.806682e-07 1.3698816e-11 -1.1228767e-11
2.6030076 3.8326176e-05 -3.1102085e-05 -7e-45 -6e-45 8e-45

linear.bias f4 [10]
00000000: 5c1c f836 9418 6c38 2af1 2539 2a3c 4ca8
00000010: 0400 0080 6a4d 192e dc69 2538 6011 062d
00000020: 6bcb 9a38 0700 0000
7.3942774e-06 5.6289675e-05 0.00015825467 -1.1337321e-14 -6e-45 3.485693e-11 3.9437655e-05 7.620876e-12
7.381182e-05 1e-44

oupt.weight f4 [1, 10]
00000000: 594a 3639 9640 f739 bd3d ae3a 2ff9 d5a8
00000010: 0600 0080 3304 962f 853f ab39 2dc6 3f2f
00000020: a324 173a 0a00 0000
0.00017384569 0.00047159632 0.0013293546 -2.3755817e-14 -8e-45 2.7287825e-10 0.00032662987 1.7441755e-10
0.0005765652 1.4e-44
