circular_cylinder/Train/old_models/neural_net/models/1_nn_regression.pth (torch, 1859 bytes, 3 tensors)

linear.weight f4 [10, 3]
0	0xb9c6f53f	-0.00037948226
1	0x3a3434d7	0.0006874329
2	0xba29c170	-0.0006475663
3	0x36172ac8	2.2525655e-06
4	0x38ac2647	8.208729e-05
5	0xb9b147fe	-0.0003381371
6	0xb9e744e5	-0.00044111084
7	0xb4a24089	-3.0221807e-07
8	0x347192be	2.2498259e-07
9	0xb9b72c37	-0.00034937423
10	0x35d88bc2	1.6133929e-06
11	0xb6c98752	-6.00602e-06
12	0xb9832917	-0.0002501688
13	0x39666432	0.00021971835
14	0xb9299bcc	-0.00016175135
15	0x37ddbe93	2.6433996e-05
16	0xb89ad246	-7.382459e-05
17	0x387f7cd0	6.091298e-05
18	0x391f35de	0.00015183489
19	0x34be14e6	3.5405463e-07
20	0xb486310f	-2.499514e-07
21	0xb8f8f1c3	-0.00011870593
22	0xb9484913	-0.00019100709
23	0x39a6e6db	0.00031833988
24	0x381d318a	3.7477854e-05
25	0x307f7bfa	9.294464e-10
26	0x3025aa4a	6.0268646e-10
27	0x37144692	8.837918e-06
28	0x35cc6da9	1.52311e-06
29	0xb5cf260b	-1.5433774e-06

linear.bias f4 [10]
0	0x3a192e8c	0.0005843423
1	0xb942ae0a	-0.00018566116
2	0xb51be616	-5.807682e-07
3	0x357512fc	9.129724e-07
4	0x395c49d0	0.00021008332
5	0xb8623fec	-5.394213e-05
6	0x34f69056	4.592609e-07
7	0xb98451b2	-0.0002523787
8	0xb185d083	-3.8945145e-09
9	0x35d2cec6	1.5706398e-06

oupt.weight f4 [1, 10]
0	0xba0b53b6	-0.0005314903
1	0x3a626419	0.00086361315
2	0x34e21b86	4.2115806e-07
3	0xb5beaa47	-1.420566e-06
4	0x39f755fc	0.00047175575
5	0xb97a634a	-0.00023878846
6	0xb4648dad	-2.1285696e-07
7	0x39c429e8	0.00037415256
8	0x32f9695a	2.9035323e-08
9	0xb5a0c76b	-1.1978967e-06
