circular_cylinder/Train/neural_net_2l/models/0.0001_nn_regression.pth (torch, 2829 bytes, 5 tensors)

hid1.weight f4 [10, 3]
000000 46 9c 79 3e 43 53 13 3d 41 6b 0d 3f 3b fe 81 be
       0.2437602 0.035968076 0.5524178 -0.25389275
000010 c3 1a 32 3e 87 84 c8 be 85 42 0f be b7 b0 31 bf
       0.17393021 -0.3916361 -0.13990219 -0.6941027
000020 54 c8 6c be 1e 14 47 be 01 26 ca 3e f0 82 df 3d
       -0.23123294 -0.19441268 0.3948212 0.10913646
000030 c3 a3 c5 3d 1a dd 4f 3f 77 0b fb 3e 5c 50 9b 3e
       0.09650376 0.8119675 0.49032184 0.30334747
000040 df 24 27 3e 11 c8 b2 be 65 11 f8 3e 56 fb 5d be
       0.16322659 -0.34918264 0.4845077 -0.21677908
000050 c9 0b dd bd 40 59 df be 02 6d 9a be e3 1a b8 be
       -0.107932635 -0.4362278 -0.3016129 -0.35958013
000060 4e ef c1 3e 3c 59 aa be 40 67 d1 be f8 ab 0a bd
       0.37877887 -0.33271205 -0.40899086 -0.03385541
000070 97 a4 04 bf 3a 6b 8d 3e
       -0.51813644 0.2762087

hid1.bias f4 [10]
000000 5f 45 68 3d 87 91 ab bd 50 a0 aa 3c 0c b4 88 3c
       0.056706782 -0.083773665 0.020828396 0.016687416
000010 96 bb 7c bd 0c 74 aa 3d 46 85 ac 3b 5e cd c1 3c
       -0.061702333 0.083229154 0.005264911 0.023657497
000020 fd 24 06 bd a8 8f b5 bc
       -0.03275012 -0.022163227

hid2.weight f4 [10, 10]
000000 5f df 48 bd 67 e9 a6 be 6b fc 3c 3e c5 57 77 3e
       -0.04904115 -0.32599947 0.18455665 0.24154575
000010 c9 39 e1 be f4 0d 73 3e 26 93 cc 3e f9 14 dc 3e
       -0.439894 0.23735791 0.39956015 0.4298475
000020 9c 99 7e be e5 4c 97 3e e5 9c 01 bf 64 e7 04 3f
       -0.24863285 0.29550853 -0.5063003 0.51915574
000030 ab 57 8a be 99 f5 ab 3e 10 9c 56 3d 41 d9 7d bc
       -0.2702001 0.33585814 0.052394927 -0.015493692
000040 01 1f f3 bc 78 d3 e1 3d df 86 41 3e f6 ab 05 be
       -0.02967787 0.110266626 0.18899105 -0.13053879
000050 20 16 11 3d 9d 95 92 be 07 4b 2b 3e ed 22 01 3f
       0.03542149 -0.2862977 0.1672784 0.5044392
000060 3c a9 fc 3e bf fa ae 3e 52 0d d4 be a1 9d 1e be
       0.49347866 0.3417568 -0.41416413 -0.15489818
000070 c7 1e af 3e 5b 35 cf be bb b0 53 3e 97 57 26 be
       0.3420317 -0.40470394 0.20672886 -0.1624435
000080 3a 1c f1 bd 64 64 ba 3d 46 0b 7e be ae 76 9e bd
       -0.11772962 0.09101179 -0.24808988 -0.0773748
000090 ee f9 4d 3e 6f e6 5d 3e 4d b3 b6 3e 29 22 a8 3c
       0.20114872 0.21669935 0.3568367 0.020524101
0000a0 0a f6 69 be 22 78 8d 3e 3f 9a b8 3c 70 7c 78 be
       -0.22847763 0.27630717 0.022534488 -0.24266219
0000b0 7b 30 27 3d a3 8a 94 be 37 91 ac 3e f0 d5 7f 3e
       0.04081772 -0.2901202 0.3370454 0.24983954
0000c0 d7 fe 9a be 70 2e 32 bd a1 d8 93 3d 96 e4 d3 3d
       -0.30272552 -0.043501318 0.07219053 0.10346334
0000d0 24 1d f0 3d 09 b4 9b be 25 10 70 bd 66 46 e7 be
       0.11724308 -0.30410793 -0.058609147 -0.45170897
0000e0 43 b7 a3 be 60 e1 a0 be a9 dc fc 3e f1 ff c4 3e
       -0.31975755 -0.31421947 0.493871 0.38476518
0000f0 45 60 74 bc 50 70 11 bd e3 d7 41 3e 56 6f be bc
       -0.014915531 -0.0355075 0.1893001 -0.023246448
000100 5c 46 64 be e7 2d 2b 3e ea d4 82 3e 0b d0 e5 bc
       -0.22292465 0.16716729 0.25553066 -0.028053304
000110 1c cc 0f 3d e1 c4 1e 3e b2 41 03 3f a5 10 b6 be
       0.035106763 0.15504791 0.5127212 -0.35559574
000120 e9 12 21 3f a0 de 99 3b 90 3d e0 be 40 58 9a 3e
       0.6291948 0.0046957284 -0.43796968 0.30145454
000130 b8 44 94 be f7 e2 cd 3e 41 db 52 be 9c b7 8b 3e
       -0.28958678 0.40212223 -0.20591451 0.2728852
000140 6a 87 80 3e dc 74 08 3d 76 3a 08 3f dd 70 8d be
       0.25103313 0.03331457 0.53214204 -0.2762517
000150 c3 ef 92 be fa c1 d7 be d5 65 9e 3c e7 e3 67 be
       -0.2869855 -0.4214018 0.019335667 -0.22645532
000160 d0 38 dd 3d fd bd a4 3d cd b9 60 3e 08 5f 71 3e
       0.10801852 0.0804405 0.21945877 0.23571408
000170 e4 03 5e 3e 23 5a 47 be b8 9f 8d be a8 07 ac be
       0.21681172 -0.19467978 -0.27660918 -0.3359959
000180 ad 54 cf 3e c1 a3 a4 bd d7 07 34 3e aa 20 47 3d
       0.4049429 -0.08039046 0.17581116 0.048615135

hid2.bias f4 [10]
000000 1a ec a1 bc b9 ef b1 bc 0c 52 da 3c d2 2f 82 3c
       -0.019765902 -0.021720754 0.026650451 0.015891943
000010 3c 76 c1 39 15 71 9b bc b9 6b 05 bb 08 ba ec bc
       0.0003689992 -0.01897482 -0.0020358397 -0.0288973
000020 07 aa a1 bc 64 a5 96 bc
       -0.019734396 -0.018389411

oupt.weight f4 [1, 10]
000000 ba ac ff be f7 d1 0b 3f a8 02 db 3e 41 d8 d3 bd
       -0.49936467 0.54617256 0.42775464 -0.103439815
000010 cc fa 70 be ff 72 ea be 0c 0b fb bd d3 1d 05 bf
       -0.23533171 -0.4579086 -0.122579664 -0.51998633
000020 40 ce 0b bf bb 8c 76 be
       -0.5461159 -0.24077122
