circular_cylinder/Train/neural_net_2l/models/0.001_nn_regression.pth (torch, 2825 bytes, 5 tensors)

hid1.weight f4 [10, 3]
0	0x3d4fd7af	0.0507428
1	0xbeb768e4	-0.35822213
2	0x3bb72b15	0.0055898526
3	0xbd48d03e	-0.04902672
4	0x3eb124f5	0.34598508
5	0xbbab8419	-0.005234253
6	0x3d6649e3	0.056222808
7	0xbecb723e	-0.39735597
8	0x3bdda9f6	0.0067646457
9	0xbd616b31	-0.055033866
10	0x3ec71876	0.3888585
11	0xbbd52e8c	-0.006505793
12	0xbd681bd4	-0.056667164
13	0x3ecd12af	0.40053317
14	0xbbe0d962	-0.0068618516
15	0xbd55531e	-0.05208122
16	0x3ebc4ca8	0.36777234
17	0xbbc068a2	-0.005871848
18	0x3d5a0296	0.053225122
19	0xbec07b04	-0.37593853
20	0x3bc8664b	0.00611571
21	0x3d53da33	0.051721763
22	0xbebafc64	-0.36520684
23	0x3bbdea4d	0.005795753
24	0x3d4964ad	0.049168278
25	0xbeb1a940	-0.3469944
26	0x3bac77d7	0.0052633095
27	0x3d6b4638	0.057440013
28	0xbecfe710	-0.40605974
29	0x3be66670	0.0070312545

hid1.bias f4 [10]
0	0x3c07e188	0.008293517
1	0xbbf6e5c7	-0.007534716
2	0x3c3380a6	0.010955965
3	0xbc298a16	-0.010347864
4	0xbc374bea	-0.011187533
5	0xbc11fcef	-0.008910402
6	0x3c1ae8e0	0.009454936
7	0x3c0f3cb3	0.008742499
8	0x3bf8e778	0.0075959526
9	0x3c3dfb41	0.011595548

hid2.weight f4 [10, 10]
0	0x3debf9cd	0.11522255
1	0xbde3e980	-0.11128521
2	0x3e02e230	0.12781596
3	0xbe00153f	-0.12508105
4	0xbe03ee34	-0.12883836
5	0xbdf244ea	-0.118295506
6	0x3df7a6a6	0.120923325
7	0x3df09423	0.11747005
8	0x3de493b8	0.111609876
9	0x3e05c07d	0.1306171
10	0xbdebe16b	-0.115176044
11	0x3de3d1f4	0.1112403
12	0xbe02d4a6	-0.12776431
13	0x3e000803	0.12503056
14	0x3e03e08e	0.1287863
15	0x3df22be3	0.11824777
16	0xbdf78d0d	-0.1208745
17	0xbdf07b44	-0.11742261
18	0xbde47c1d	-0.11156485
19	0xbe05b2a7	-0.13056432
20	0xbdecd8ce	-0.1156479
21	0x3de4c0d9	0.11169595
22	0xbe035df3	-0.12828808
23	0x3e008e5b	0.12554304
24	0x3e046af9	0.12931432
25	0x3df329e6	0.11873226
26	0xbdf890ca	-0.12136991
27	0xbdf17790	-0.11790383
28	0xbde56ba9	-0.11202175
29	0xbe063efe	-0.13109967
30	0x3de5d8b8	0.112229764
31	0xbdddfe56	-0.10839526
32	0x3dfef6ec	0.1244944
33	0xbdf982a1	-0.121831186
34	0xbe008066	-0.1254898
35	0xbdebf9f0	-0.11522281
36	0x3df137a3	0.1177819
37	0x3dea5465	0.11441878
38	0x3ddea424	0.10871151
39	0x3e024699	0.12722243
40	0x3de74e39	0.11294217
41	0xbddf6702	-0.10908319
42	0x3e004abc	0.12528509
43	0xbdfb183e	-0.12260483
44	0xbe015152	-0.12628677
45	0xbded7969	-0.11595423
46	0x3df2bfad	0.118529655
47	0x3debd128	0.11514503
48	0x3de00de1	0.10940147
49	0x3e031a69	0.12803043
50	0x3dec7da6	0.11547403
51	0xbde468d8	-0.1115281
52	0x3e032b64	0.12809521
53	0xbe005cdc	-0.12535423
54	0xbe0437fa	-0.12911978
55	0xbdf2cc53	-0.11855378
56	0x3df83119	0.1211874
57	0x3df11a9f	0.11772656
58	0x3de5136b	0.11185344
59	0x3e060b49	0.13090242
60	0x3de6de65	0.11272887
61	0xbddefafe	-0.10887717
62	0x3e000cb0	0.1250484
63	0xbdfa9eca	-0.12237318
64	0xbe0112c6	-0.12604818
65	0xbded0691	-0.11573518
66	0x3df24a42	0.1183057
67	0x3deb5f22	0.114927545
68	0x3ddfa188	0.109194815
69	0x3e02daf8	0.12778842
70	0x3ded0d1c	0.11574766
71	0xbde4f364	-0.111792356
72	0x3e037afd	0.12839885
73	0xbe00aac1	-0.12565137
74	0xbe04883d	-0.12942596
75	0xbdf35f9e	-0.11883472
76	0x3df8c7b8	0.12147468
77	0x3df1ace5	0.11800555
78	0x3de59e50	0.11211836
79	0x3e065caa	0.13121286
80	0x3ded5190	0.115878224
81	0xbde53576	-0.111918375
82	0x3e03a0f9	0.12854375
83	0xbe00cfeb	-0.12579314
84	0xbe04ae85	-0.12957199
85	0xbdf3a5de	-0.11896871
86	0x3df90f95	0.12161175
87	0x3df1f2a7	0.118138604
88	0x3de5e09c	0.112244815
89	0x3e06837a	0.13136092
90	0x3dea2957	0.11433666
91	0xbde22901	-0.11042977
92	0x3e01e068	0.1268326
93	0xbdfe3225	-0.12411908
94	0xbe02ea5d	-0.12784715
95	0xbdf06817	-0.117386036
96	0x3df5bf25	0.119993486
97	0x3deeba99	0.116566844
98	0x3de2d1e5	0.110751905
99	0x3e04b90d	0.12961216

hid2.bias f4 [10]
0	0xba7d324d	-0.00096586795
1	0x3a7f4ea9	0.00097391993
2	0x3a69d23a	0.0008919571
3	0xbac0734d	-0.00146828
4	0xbab12607	-0.0013515361
5	0xba71c385	-0.0009222555
6	0xbab5c057	-0.0013866526
7	0xba653fcb	-0.00087451626
8	0xba5f41ab	-0.000851656
9	0xba9284a5	-0.0011178447

oupt.weight f4 [1, 10]
0	0xbec40af4	-0.38289607
1	0x3ec3f69f	0.38274094
2	0x3ec4c4d9	0.38431433
3	0xbebeef3a	-0.3729189
4	0xbec0268a	-0.37529403
5	0xbec478e4	-0.38373482
6	0xbebfc951	-0.3745828
7	0xbec4f075	-0.38464704
8	0xbec52980	-0.38508224
9	0xbec287e2	-0.37994295
