circular_cylinder/Train/neural_net_2l/models/0.0001_nn_regression.pth (torch, 2829 bytes, 5 tensors)

hid1.weight f4 [10, 3]
9.1826337e-07 -1.5995522e-06 -1.5470504e-06 -6.625844e-05 0.00011021141 -3.776334e-06 0.40284634 -0.99140716
-0.10032134 6.7476526e-06 -5.193016e-05 -3.1292834e-06 -0.05213623 0.12912773 0.40029818 1.081402e-06
-1.539582e-05 -5.0236727e-06 -1.6542425e-06 1.8698156e-05 4.743218e-06 -5.375926e-07 -9.217243e-07 -2.236919e-06
-1.1463754e-06 7.032036e-05 9.4214134e-05 0.20337357 -0.6073404 0.33837125
00000000: 947e 7635 32b0 d6b5 3fa4 cfb5 3bf4 8ab8
00000010: 4d21 e738 ed6c 7db6 e041 ce3e dccc 7dbf
00000020: 4675 cdbd e569 e236 96cf 59b8 ae00 52b6
00000030: cd8c 55bd 0f3a 043e e2f3 cc3e b124 9135
00000040: 4626 81b7 0591 a8b6 5707 deb5 fcd9 9c37
00000050: ef27 9f36 154f 10b5 696c 77b5 fa1d 16b6
00000060: 29dd 99b5 f578 9338 d494 c538 2941 503e
00000070: a97a 1bbf ff3e ad3e

hid1.bias f4 [10]
-1.7943289e-06 -0.00020185074 0.33230934 -7.3504957e-06 0.08740185 -6.232562e-06 6.6533016e-06 -1.3760898e-06
0.00010131276 -0.41749337
00000000: acd4 f0b5 e5a7 53b9 7324 aa3e 47a4 f6b6
00000010: beff b23d 4d21 d1b6 6d3f df36 16b2 b8b5
00000020: e077 d438 b1c1 d5be

hid2.weight f4 [10, 10]
7.664353e-08 -1.0735943e-06 0.011647698 -1.666797e-06 -0.0008804835 -1.5118076e-06 1.1114648e-06 -4.8208966e-07
1.0886232e-05 0.013491056 -1.0318164e-06 8.766722e-05 -0.09204681 1.0479094e-05 0.0060020965 6.4934284e-06
-6.3904904e-06 5.260931e-07 -4.545475e-05 -0.10769681 -5.5781095e-07 0.00019086986 -1.023669 -1.7891303e-05
0.28797072 -2.8735544e-06 3.0076662e-06 4.2698383e-07 -4.0865434e-05 -0.6585831 3.5077796e-09 4.7468e-10
-8.9198875e-06 2.345257e-09 1.356528e-06 5.8349445e-09 -3.7358836e-09 -3.6055083e-09 -6.6750247e-12 5.47817e-06
5.2199343e-09 1.1773721e-07 -0.0010973626 -7.7178456e-08 0.000102598264 -2.0144089e-08 2.4016177e-08 4.514231e-09
-2.8691514e-07 1.0187285e-05 -8.706211e-07 -4.9856876e-06 0.019031266 -4.594892e-06 -0.0013767419 -2.7419228e-06
2.8437057e-06 1.9704798e-07 1.7448583e-05 0.022141265 -3.3310683e-09 -2.9463951e-08 -3.6534537e-05 -5.5984004e-09
6.0099515e-05 -2.8607072e-09 1.7724161e-09 2.8100733e-09 -7.361906e-09 -6.850376e-05 1.4058289e-06 -0.000107210864
0.12656811 -1.4553806e-05 -0.00778458 -9.511736e-06 8.930616e-06 -1.2149164e-06 4.4497727e-05 0.14850615
1.42572e-06 -0.000119218224 0.15570568 -1.652106e-05 -0.008993082 -1.0679261e-05 1.0434383e-05 -1.4791674e-06
4.356621e-05 0.18328422 2.5258209e-09 1.9104196e-09 4.1052067e-06 1.262823e-08 1.5173617e-06 1.535851e-08
-1.1914835e-08 -4.626098e-09 -2.233516e-09 3.3500078e-07
00000000: 3a97 a433 6b18 90b5 fcd5 3e3c b5b6 dfb5
00000010: 3fd0 66ba 50e9 cab5 a42d 9535 f368 01b5
00000020: 03a4 3637 9709 5d3c f17c 8ab5 fbd9 b738
00000030: 0a83 bcbd 5ecf 2f37 3cad c43b 20e2 d936
00000040: e56d d6b6 d838 0d35 aba6 3eb8 2590 dcbd
00000050: 7abc 15b5 3d24 4839 9607 83bf 4815 96b7
00000060: e670 933e 4ad7 40b6 50d7 4936 363c e534
00000070: ed66 2bb8 e798 28bf 830d 7131 a37a 0230
00000080: a0a6 15b7 332a 2131 f211 b635 b77c c831
00000090: 2e5d 80b1 c6c4 77b1 47db eaac 1fd1 b736
000000a0: 075b b331 b7d6 fc33 61d5 8fba 4ebd a5b3
000000b0: 062a d738 5209 adb2 224c ce32 991b 9b31
000000c0: 5109 9ab4 0eea 2a37 a0b4 69b5 bb4a a7b6
000000d0: 75e7 9b3c d22d 9ab6 cb73 b4ba e001 38b6
000000e0: 7ed6 3e36 2394 5334 8c5e 9237 9961 b53c
000000f0: c6e8 64b1 ea17 fdb2 a93c 19b8 0d5c c0b1
00000100: 5d13 7c38 1896 44b1 5999 f330 551b 4131
00000110: 03f4 fcb1 ada9 8fb8 eaaf bc35 65d6 e0b8
00000120: 129b 013e 1f2c 74b7 ca15 ffbb 9894 1fb7
00000130: b4d4 1537 3610 a3b5 12a3 3a38 ff11 183e
00000140: 5e5b bf35 cc04 fab8 4f71 1f3e b596 8ab7
00000150: b857 13bc 142b 33b7 550f 2f37 ce87 c6b5
00000160: ddba 3638 dcae 3b3e b692 2d31 7548 0331
00000170: 75bf 8936 8bf3 5832 27a8 cb35 b8ed 8332
00000180: 00b2 4cb2 97f3 9eb1 6e7c 19b1 28da b334

hid2.bias f4 [10]
-0.0033090855 0.0261401 -0.12436819 -3.4148497e-06 -0.00016053958 -0.005433726 9.713581e-05 -0.035340257
-0.04265923 2.0402462e-07
00000000: 3edd 58bb c323 d63c c0b4 febd ac2a 65b6
00000010: 8456 28b9 660d b2bb 64b5 cb38 f2c0 10bd
00000020: 72bb 2ebd dc11 5b34

oupt.weight f4 [1, 10]
-0.018024303 0.14452825 1.1939214 4.3262994e-06 0.00048193874 -0.029648077 -5.542749e-05 -0.19914028
-0.24549046 -3.1498591e-06
00000000: b4a7 93bc 37ff 133e 6bd2 983f a12a 9136
00000010: b9ac fc39 86e0 f2bc d07a 68b8 6eeb 4bbe
00000020: da61 7bbe 2b62 53b6
