circular_cylinder/Train/neural_net_2l/models/0.001_nn_regression.pth (torch, 2829 bytes, 5 tensors)

hid1.weight f4 [10, 3]
000000 51 bd 96 3e 42 aa 3c 3e ce d8 d0 3e 7f 45 a6 be
       0.29441312 0.18424323 0.4079041 -0.32474896
000010 aa 44 fa 3d cb d3 8a be 3d 04 f8 bd c5 6a 12 bf
       0.12220128 -0.2711471 -0.121101834 -0.5719417
000020 0c 80 ad be 95 51 75 be 94 4d a4 3e 08 c0 1c 3e
       -0.33886755 -0.23956902 0.32090437 0.15307629
000030 40 b7 0b 3e 78 45 35 3f ef d2 30 3f 11 bd dd 3e
       0.13644123 0.70809126 0.6907186 0.4330831
000040 2d 9c 4e 3d e8 a3 e2 be 54 51 10 3f fa ba 4d be
       0.05044191 -0.44265676 0.56374097 -0.20090857
000050 49 4d ac bd d5 73 0e bf 53 41 25 be d9 af ed be
       -0.084131785 -0.55645496 -0.161382 -0.46423224
000060 e9 2a 18 3f 5d 3b 0f bf 07 09 01 bf 14 7d 05 3c
       0.59440476 -0.55949956 -0.504044 0.008147497
000070 c6 7a cb be ed 1f 5b 3e
       -0.39742106 0.21398897

hid1.bias f4 [10]
000000 1c f9 f6 bc 54 cf b4 bc 6b 76 e4 bc 71 69 de 3c
       -0.030148081 -0.022071518 -0.027888497 0.027149888
000010 4f 47 df 3c 98 14 cd 3c 7b e3 d9 bc 55 30 c7 bc
       0.027255682 0.025034234 -0.026597729 -0.024315039
000020 19 cd b5 3c 27 b3 e4 bc
       0.022192525 -0.027917458

hid2.weight f4 [10, 10]
000000 95 d8 37 be b8 f0 92 be e5 08 79 3d d9 50 bb 3e
       -0.17953713 -0.2869928 0.060799498 0.3658512
000010 dc f7 d3 be b5 8f 92 3e d5 c3 c3 3e 1c 49 01 3f
       -0.4140004 0.28625265 0.38235345 0.5050218
000020 b8 4c b5 be 81 4a 10 3e 9b ec db be a2 7a fe 3e
       -0.35410094 0.14090921 -0.42953953 0.49702936
000030 95 b3 78 be 5e 9c b8 3e 57 bc 3a 3d df dd 92 bd
       -0.24287255 0.360568 0.04558977 -0.07171225
000040 73 47 44 bd 52 9e fc 3d 7e 60 6a 3e 50 da a2 3d
       -0.0479197 0.12334885 0.22888371 0.07951796
000050 95 81 17 3e bc a6 ec be f4 0b bd 3e 4e 2c 02 3f
       0.14795525 -0.46220958 0.36923182 0.50848854
000060 53 91 f6 3e cc 37 c0 3e fe 35 da be 3f 82 2f be
       0.4815775 0.3754257 -0.42619318 -0.17139529
000070 14 1b e8 3e cb bb d8 be 2b f9 ed 3e d4 db cf be
       0.4533316 -0.42330775 0.46479163 -0.40597403
000080 28 71 cf be 5d b5 94 3e ff 69 bd be db f5 16 be
       -0.4051602 0.2904462 -0.3699493 -0.14742224
000090 d7 83 bf 3e b5 10 e9 3e 5a 4e fd 3e 80 62 d4 bd
       0.37405273 0.4552056 0.4947384 -0.1037035
0000a0 78 4b d5 be 35 45 02 3f fd 5f b2 bd 39 25 83 be
       -0.4165914 0.5088685 -0.087097146 -0.25614336
0000b0 85 97 d6 3d 1d 22 b5 be 24 17 c8 3e c4 81 9f 3e
       0.10478119 -0.3537759 0.39080155 0.3115369
0000c0 0d 76 cf be d0 0d e1 be ad f0 8d bc e2 bf 4c 3e
       -0.40519753 -0.4395585 -0.017326677 0.19995072
0000d0 62 d5 74 3c aa 27 9e be c3 6a 8c bc 26 6e f8 be
       0.014943453 -0.30889636 -0.017140752 -0.48521537
0000e0 f7 53 b6 be c1 7b ca be c7 2d f6 3e 65 5b fa 3e
       -0.35610935 -0.39547542 0.480818 0.48897853
0000f0 89 ab 10 be 66 28 93 3b 50 2b 81 3e 14 93 36 3d
       -0.14127935 0.0044909 0.25228357 0.04457386
000100 e5 74 92 be 66 90 a9 3e 2e cf b4 3e 34 e4 52 bd
       -0.28604808 0.3311798 0.35314316 -0.051487163
000110 77 df 44 bd ab 8e ec 3e c2 cf ff 3e 13 59 ae be
       -0.048064675 0.46202597 0.49963194 -0.34052333
000120 4b be 10 3f f1 b0 d6 3d 4e f6 c8 be bb 6e a8 3e
       0.56540364 0.10482968 -0.39250416 0.3289698
000130 8a aa c1 be 3a 24 f3 3e 6a 42 a5 be b2 d6 25 3e
       -0.37825423 0.47488576 -0.32277232 0.16195181
000140 b7 eb 49 3e 6f 00 cd 3d 61 1e f8 3e 03 63 84 be
       0.19718824 0.10009848 0.48460677 -0.2585679
000150 3f 64 85 be d8 e4 e3 be 00 a3 0a 3c 35 bf 94 be
       -0.26053044 -0.4451053 0.008461714 -0.2905213
000160 57 9f 53 3d af 4e d3 bd 7c 97 5b 3e 91 c1 e2 3e
       0.05166563 -0.10317742 0.21444505 0.44288304
000170 4e e8 44 3e df fe 54 be 48 c4 98 be c1 28 e5 be
       0.19229242 -0.2080035 -0.2983725 -0.44757655
000180 fe 0c fc 3e 9b aa 0a be 79 30 10 3e 92 e4 f4 3c
       0.49228662 -0.13541643 0.14080991 0.029894147

hid2.bias f4 [10]
000000 09 30 db bc b3 8a da 3c 52 36 dd 3c 59 e7 a6 3c
       -0.026756303 0.026677465 0.027003441 0.020373987
000010 9d a6 d7 bc e6 99 df bc 7c 72 7d bc 74 5f db bc
       -0.026324565 -0.027295064 -0.01546919 -0.026778914
000020 a5 46 df bc 75 35 e2 bc
       -0.027255366 -0.02761338

oupt.weight f4 [1, 10]
000000 b8 51 ed be 05 11 e7 3e aa 2e c7 3e c4 51 09 3c
       -0.4635141 0.45130172 0.3890279 0.008381311
000010 a7 13 c8 be 20 78 ae be 6a 2c a8 bc 2e 35 cb be
       -0.39077494 -0.34076023 -0.02052899 -0.3968901
000020 c0 e1 e7 be 26 ff 14 be
       -0.4528942 -0.14550456
