circular_cylinder/Train/neural_net_2l/models/0.01_nn_regression.pth (torch, 2957 bytes, 5 tensors)

module.hid1.weight f4 [10, 3]
00000000: 3a10 833e cd6e 593e eeae de3e 7a3f b1be
00000010: 9975 113e 4a3c 81be 5add 16be 9cec 0bbf
00000020: 021c a1be 2166 4fbe e769 973e 074a 043e
00000030: 096e 263e 2be9 2e3f 24c9 2a3f 9a80 ea3e
00000040: b0b8 db3c fe05 eebe 6488 063f d755 33be
00000050: 83ea 75bd ce74 14bf 18c1 0ebe 29f1 e2be
00000060: 8871 1e3f 5605 15bf 3d45 06bf 050c 93bc
00000070: c4b1 bebe 77bd 733e
0.25598317 0.21233673 0.43492836 -0.3461874 0.14205016 -0.2524131 -0.14732876 -0.5465791
-0.3146668 -0.20253803 0.29572985 0.12918864 0.16252913 0.68324536 0.66713166 0.4580124
0.026821464 -0.46488947 0.52551866 -0.17513214 -0.0600381 -0.5799073 -0.13940847 -0.44324616
0.61891985 -0.58211267 -0.524494 -0.017950067 -0.37245 0.23802744

module.hid1.bias f4 [10]
00000000: fedb 9ebb 4591 a5bb add7 a2bb 3c51 a43b
00000010: fc95 a03b 8b3a a33b a781 a5bb 2883 a3bb
00000020: d3d4 a03b ad72 a2bb
-0.0048480025 -0.005052718 -0.004969558 0.0050145667 0.004900692 0.004981344 -0.005050856 -0.0049900003
0.004908183 -0.004957518

module.hid2.weight f4 [10, 10]
00000000: d111 5dbe 8c1a 81be f516 143d 5a58 c83e
00000010: 43df c7be 6142 863e a9c9 b63e dd73 0a3f
00000020: 2baa c1be 2f4f 033e f3bd ccbe 3fc8 ec3e
00000030: 0bd2 5ebe eb8c ab3e 5689 af3c 9a6a 43bd
00000040: 3ed0 b9bc 8f35 b43d a892 813e acb6 bb3d
00000050: 8d49 303e e2c3 febe cda9 c93e 191f f73e
00000060: 756b ea3e 47b3 cc3e 63ff ccbe 5f20 55be
00000070: cfa3 f43e 4220 d3be 9b2e fb3e c1b6 d9be
00000080: 9715 c6be 52e3 853e a9d7 c6be 8c34 05be
00000090: 0849 c93e 8c74 db3e 8c47 033f 6231 d9bd
000000a0: bf8c dcbe 144e 0b3f 7b6f e4bd 8405 6cbe
000000b0: e17c 033e 4284 c1be a3f2 ba3e 315a b23e
000000c0: 3be6 dbbe 47e5 e5be 454b 59bd 23ac 703e
000000d0: 69be 2fbc 25d3 90be 12cb f23b 257d 02bf
000000e0: a282 c3be 000e b8be 738a e93e 7da9 f43e
000000f0: f435 39be 14fc a03c c7ca 743e 3e3e 733d
00000100: 12c7 89be cb0a 9f3e 24a7 a93e 90a0 11bd
00000110: ac77 90bd 9512 fc3e 7785 f23e 2762 9cbe
00000120: f77d 0a3f bf7f 053e a6e3 bcbe 5813 9c3e
00000130: bfad cebe e5d7 023f 8aaa b1be 6004 1a3e
00000140: f491 253e 898d 0a3e 8637 eb3e 3a3a 6ebe
00000150: 2303 72be 4d69 f0be e177 8dbc b639 82be
00000160: 2e9b dd3c 8f9f edbd b6d5 343e 7487 ef3e
00000170: e1bd 2a3e cbe6 39be 2636 8cbe 17ef f1be
00000180: 62e8 e83e 97f9 c9bd c1de ec3d 5577 823c
-0.21588828 -0.25215566 0.036154706 0.39129907 -0.39037523 0.26222518 0.3570073 0.54083043
-0.3782514 0.12823175 -0.3998867 0.46246526 -0.21759813 0.3350595 0.021427792 -0.047709085
-0.022682305 0.08799278 0.25307202 0.09165701 0.17215557 -0.49758822 0.3938736 0.48265913
0.45785108 0.39980528 -0.40038595 -0.2081313 0.47781226 -0.41235548 0.49058995 -0.42522243
-0.38688347 0.26149994 -0.3883641 -0.13008326 0.3931353 0.42862356 0.51281047 -0.10605122
-0.4307613 0.5441601 -0.11154076 -0.23048979 0.12840606 -0.37796217 0.36513242 0.34834436
-0.4294909 -0.44901487 -0.0530503 0.23503165 -0.01072655 -0.2828609 0.007409462 -0.50972205
-0.38185602 -0.3594818 0.4561344 0.4778556 -0.18086988 0.01965145 0.23905478 0.05938553
-0.2690969 0.31062922 0.3313533 -0.035553515 -0.070540756 0.49232927 0.4736745 -0.30543634
0.5409846 0.13037013 -0.36892432 0.30483508 -0.40366933 0.5111068 -0.34700423 0.15040731
0.16168958 0.13530554 0.459408 -0.23264399 -0.23634009 -0.46955338 -0.017269077 -0.25434655
0.027051535 -0.11602699 0.17659649 0.4678303 0.16673996 -0.18154447 -0.27385062 -0.47252724
0.45489794 -0.098620586 0.115659244 0.015926043

module.hid2.bias f4 [10]
00000000: 8a2d a3bb 77c3 a33b 11ea a33b f219 a03b
00000010: dc93 a3bb 929e a3bb 4651 933b 0664 a3bb
00000020: 54d0 a3bb 2d33 a4bb
-0.004979794 0.0049976665 0.005002268 0.0048859054 -0.0049919914 -0.0049932683 0.0044957725 -0.004986289
-0.0049992 -0.0050109834

module.oupt.weight f4 [1, 10]
00000000: d299 f3be cb65 d23e 14de d63e dc80 033d
00000010: fd4f d4be ffa3 9ebe 31b4 a53b 78b2 dabe
00000020: debf d5be 2f6b ecbd
-0.47578293 0.41093287 0.41966307 0.03210531 -0.41467276 -0.30984494 0.005056881 -0.42714286
-0.41747946 -0.11543881
