circular_cylinder/Train/neural_net_2l/models/0.0_nn_regression.pth (torch, 2759 bytes, 5 tensors)

hid1.weight f4 [10, 3]
000000 b6 c5 42 41 71 e1 0c c0 c1 a3 f5 40 49 34 0f bf
       12.173269 -2.2012599 7.6762395 -0.55939156
000010 14 c9 bc 3f 63 87 50 bf 2f 27 b6 41 40 b0 4d be
       1.4748864 -0.81456584 22.769133 -0.20086765
000020 e7 cd ba c0 ce a2 31 3f 1d e6 3f 3f be 27 a6 3e
       -5.8376346 0.69389045 0.749605 0.32452196
000030 1d 6e bc c0 21 f7 6d 3f 72 96 dc 3f 8f f5 0c c0
       -5.8884416 0.92955214 1.7233412 -2.2024877
000040 75 7d 00 3f c2 51 8f bf 21 98 74 41 9f 4b cd bd
       0.5019143 -1.1196826 15.287141 -0.10024189
000050 62 cc 01 3e 0f bc 3f c2 f0 8a 1a 40 22 23 89 c0
       0.12675622 -47.93365 2.41473 -4.2855387
000060 17 70 54 c0 ca 4b 2d c0 a9 1a bb be 31 84 a2 be
       -3.3193414 -2.7077508 -0.36543778 -0.3174148
000070 82 96 03 c0 d8 a7 dd 3e
       -2.0560613 0.43292117

hid1.bias f4 [10]
000000 c8 c1 56 bf d1 2f 76 3e 35 ad 3b 40 87 ce 9b 3d
       -0.83889437 0.24041678 2.9324467 0.07607751
000010 a1 20 86 bf 43 f1 18 3f 90 9e c5 3e f8 72 41 3f
       -1.0478708 0.59743136 0.38597536 0.75566053
000020 be 06 e5 3e 16 41 15 3f
       0.44731706 0.5830244

hid2.weight f4 [10, 10]
000000 9a e8 5c bf 5e b7 85 bf 1e 5b 4b 3f 35 44 ac 3e
       -0.8629242 -1.0446584 0.7943591 0.33645788
000010 ec 86 d0 be e6 14 24 3f 08 0c 22 3e 9b 6d 1a 3e
       -0.40727937 0.6409439 0.15824902 0.15080874
000020 6f f9 50 bf ce a0 11 3f 4f aa 01 c0 9e d2 ac 40
       -0.81630605 0.56885993 -2.0260198 5.40071
000030 21 b2 9c be 57 ae 8c 3f 55 7c a8 3f 2b 00 70 3f
       -0.30604652 1.0990704 1.3162943 0.93750256
000040 50 3e eb bf c6 86 de bf bc 1c ae bf b7 1c 1f c0
       -1.8378391 -1.738488 -1.3602519 -2.4861276
000050 f3 46 7d 3c 4c 78 62 bf 39 9b 01 3f 67 be 3a 3f
       0.01545881 -0.8846481 0.50627476 0.7294678
000060 57 97 0c 3e 08 a5 0b 3f 2d 3d b4 be a9 4c 8b be
       0.13729607 0.5454869 -0.35202923 -0.27206925
000070 4b 92 07 3f 68 71 60 bf bd e4 45 3f e4 7a fe bf
       0.529576 -0.87673044 0.7730215 -1.9881253
000080 3d 4b a0 3e e2 99 d7 3e fb 24 b4 bf 16 e2 8d 3f
       0.31307402 0.4210959 -1.4073786 1.1084621
000090 68 78 94 3f 01 52 24 bf a3 6d a2 3e a4 25 01 3f
       1.1599245 -0.6418763 0.3172427 0.5044806
0000a0 23 b2 5a 3f 22 d8 31 40 72 44 ec bf f6 4a 01 3f
       0.85428065 2.7788167 -1.8458388 0.50505006
0000b0 e4 02 43 3f eb 04 14 3f 9b ec 2f bf aa c9 27 40
       0.76176286 0.57820004 -0.68720406 2.6216836
0000c0 9e 43 27 bf c0 1f 2b c0 68 f1 71 bd 47 69 b5 3e
       -0.6533755 -2.6738129 -0.059068114 0.35431883
0000d0 8f f2 2d 3f 85 b6 5d bf b8 fe 87 3f f3 c8 56 bf
       0.6794824 -0.8660663 1.0624609 -0.83900374
0000e0 da 6e 08 c0 80 c2 96 be 40 66 15 3f 8e 0a df 3f
       -2.1317658 -0.29445267 0.58359146 1.7425096
0000f0 c2 2a b8 bf 47 fd 5e bf f8 8d 34 40 5f e5 db bf
       -1.4388049 -0.8710522 2.821165 -1.7179374
000100 a3 b1 30 bf 51 64 95 bf 0c 3c 11 be 31 f8 94 c0
       -0.6902105 -1.1671239 -0.14183062 -4.655297
000110 db e6 cd be 1d 18 bb 40 4e 03 de 3f f1 b5 c6 3e
       -0.4021519 5.8466935 1.7344759 0.38810685
000120 cb 4d ce 3e 6b 13 a4 3e f1 f5 b1 bf a3 bc dd 3e
       0.40293726 0.32046065 -1.390318 0.4330798
000130 f0 ab 25 bf e8 08 fe 3f 7f 8a 48 bd 5a a5 5f 3f
       -0.6471548 1.9846468 -0.048960205 0.8736168
000140 52 b2 ff 3d 9d d1 86 3e 2f 31 b8 bd aa 94 43 bf
       0.12485184 0.26331797 -0.08993756 -0.7639872
000150 48 b1 8f bd 26 85 31 bf 82 0c 99 3f 57 58 dd be
       -0.070162356 -0.69343793 1.1956942 -0.4323146
000160 dd 93 19 bf 1f db 51 3f b9 27 d6 3d 97 f0 a1 3f
       -0.59991246 0.8197498 0.10456795 1.2651547
000170 55 ae 8e 3f b9 54 1c bf 7a 0b 35 bf 6e 34 7e bf
       1.1146952 -0.61066777 -0.70720637 -0.9929875
000180 2d 45 25 40 8c 79 ca bf c5 3e 6a 3f 58 63 b4 be
       2.5823472 -1.5818343 0.9150203 -0.35232043

hid2.bias f4 [10]
000000 09 8b 30 3e 8e ee 5f be 07 e2 0c 3e 4d 75 f2 3d
       0.17240538 -0.21868345 0.13758098 0.118387796
000010 79 de af be d3 94 a3 be 8c 6d 56 3d 74 ab 94 3f
       -0.3434942 -0.3194948 0.052350566 1.1614823
000020 91 00 99 be cf 12 40 3e
       -0.29883245 0.18757175

oupt.weight f4 [1, 10]
000000 12 ac 9e bf 13 ce 01 3f f6 a8 33 40 80 da 8e 3f
       -1.2396262 0.5070507 2.8071876 1.1160431
000010 c9 fa 7e bf 46 b1 97 bf fd 33 21 bf d7 70 3e bf
       -0.9960142 -1.1850975 -0.6296995 -0.7439093
000020 4f 9f 74 bf b2 f8 49 bf
       -0.95555586 -0.78895104
