circular_cylinder/Train/neural_net_2l/models/0.0_nn_regression.pth (torch, 2753 bytes, 5 tensors)

hid1.weight f4 [10, 3]
-0.4263375 -6.395444 6.544298 -9.778124 1.3014851 -5.8231044 -4.587417 -3.2069862
-3.834966 0.40547645 14.573717 6.2025657 -0.97758615 8.565603 3.3106735 0.76982874
6.5553465 -7.992269 -2.3299227 -0.60826623 -5.128909 -0.36643198 -10.91922 3.2930028
8.849105 5.416064 -6.424404 -0.103091605 -6.3473406 5.8184156
00000000: e948 dabe 7aa7 ccc0 e46a d140 3273 1cc1
00000010: 1097 a63f df56 bac0 1fcc 92c0 433f 4dc0
00000020: 1570 75c0 9c9a cf3e f22d 6941 6b7b c640
00000030: 1643 7abf b60c 0941 13e2 5340 7f13 453f
00000040: 66c5 d140 abc0 ffc0 741d 15c0 56b7 1bbf
00000050: 0620 a4c0 f99c bbbe 20b5 2ec1 8fc0 5240
00000060: ef95 0d41 6550 ad40 b894 cdc0 b121 d3bd
00000070: 6a1d cbc0 7630 ba40

hid1.bias f4 [10]
-1.5808355 -1.7514161 4.109172 -0.012088731 -1.0651355 1.3256071 1.1625211 0.6265082
1.885171 -0.51505244
00000000: d158 cabf 672e e0bf 567e 8340 d00f 46bc
00000010: 5c56 88bf 7ead a93f 7ecd 943f d762 203f
00000020: 494d f13f 7ada 03bf

hid2.weight f4 [10, 10]
-5.3033214 1.7434193 1.0004376 1.6350822 2.122351 -3.7058706 -0.69001746 -14.460249
0.6367482 -5.4781594 1.7272809 0.85747916 -3.8245234 0.32245484 -0.13270457 -5.658218
-0.92607784 -6.847046 -1.1113824 2.1388936 -2.277665 2.3371005 1.1676357 3.7828655
3.1195648 0.52012134 0.9073872 -2.592073 2.2866468 -11.404219 0.048730463 2.3493993
0.28127238 -0.9460375 -1.1438992 3.253369 3.4275491 3.0345793 1.1649414 -1.7150358
-0.3956246 -6.965862 0.6579279 -0.3142855 -0.284568 -0.43694276 0.43113297 -2.915122
-1.7018515 -1.4756117 0.56757617 -1.9093812 1.4589065 0.47506073 1.137315 -4.7260704
-1.4652659 -1.9474472 -0.40898862 1.2398924 -2.0418665 -1.057111 2.7373374 -0.6136468
-2.1235278 0.80989814 1.6229513 4.4456553 0.9894482 -0.73939925 4.958352 0.30011472
-0.34608918 -0.51014227 -1.9397786 -6.728563 -4.408159 2.5673146 -0.9406452 5.6015725
-2.3071797 0.42123318 0.6564766 1.5620943 0.5779171 -2.1690662 0.86248314 -5.778807
-3.3667228 -4.5411406 -1.1446738 0.7572403 0.4008464 -1.1505982 -1.3333741 1.6955451
0.9455928 2.4859383 0.33836937 -0.69270176
00000000: cfb4 a9c0 5d28 df3f 570e 803f 604a d13f
00000010: 99d4 0740 fc2c 6dc0 fca4 30bf 2e5d 67c1
00000020: ee01 233f 154d afc0 8a17 dd3f c183 5b3f
00000030: fec4 74c0 cd18 a53e b5e3 07be 1f10 b5c0
00000040: 7013 6dbf 001b dbc0 c741 8ebf a2e3 0840
00000050: 43c5 11c0 0e93 1540 1675 953f 781a 7240
00000060: f3a6 4740 ac26 053f 874a 683f 86e4 25c0
00000070: 6c58 1240 ae77 36c1 9899 473d 8f5c 1640
00000080: ef02 903e 832f 72bf 4a6b 92bf 3337 5040
00000090: f75c 5b40 8c36 4240 cd1c 953f 4b86 dbbf
000000a0: 4f8f cabe 57e8 dec0 f66d 283f 07ea a0be
000000b0: e6b2 91be f6b6 dfbe 76bd dc3e 5c91 3ac0
000000c0: 45d6 d9bf d8e0 bcbf ac4c 113f 9a66 f4bf
000000d0: 73bd ba3f 293b f33e 8a93 913f f83b 97c0
000000e0: d58d bbbf f345 f9bf f566 d1be cbb4 9e3f
000000f0: f1ad 02c0 6a4f 87bf 8930 2f40 f517 1dbf
00000100: e1e7 07c0 7c55 4f3f debc cf3f cf42 8e40
00000110: 7a4c 7d3f 4549 3dbf d2aa 9e40 a3a8 993e
00000120: 9a32 b1be af98 02bf aa4a f8bf 6350 d7c0
00000130: a30f 8dc0 e24e 2440 20ce 70bf 1540 b340
00000140: d5a8 13c0 e0ab d73e da0e 283f b5f2 c73f
00000150: 60f2 133f fbd1 0ac0 b2cb 5c3f fdeb b8c0
00000160: 6378 57c0 0651 91c0 ac84 92bf 80da 413f
00000170: bd3b cd3e cd46 93bf 01ac aabf 9f07 d93f
00000180: 5f12 723f 9d19 1f40 c03e ad3e e754 31bf

hid2.bias f4 [10]
0.58582866 -1.0543723 -0.109061725 -0.26104346 -0.48324397 -0.7293409 -0.0757355 -1.5348842
0.08830351 -0.96928984
00000000: def8 153f acf5 86bf c15b dfbd 7da7 85be
00000010: c16b f7be 16b6 3abf 371b 9bbd 1677 c4bf
00000020: 78d8 b43d 6123 78bf

oupt.weight f4 [1, 10]
-1.2043624 1.6635039 0.2729148 0.18676776 -0.89795643 0.68830097 -0.4947433 -0.24586517
0.3703193 -0.37040257
00000000: 8c28 9abf b2ed d43f 7dbb 8b3e 0c40 3f3e
00000010: 79e0 65bf 7e34 303f fe4e fdbe 14c4 7bbe
00000020: 7e9a bd3e 68a5 bdbe
