circular_cylinder/Train/neural_net_2l/models/0.1_nn_regression.pth (torch, 2957 bytes, 5 tensors)

module.hid1.weight f4 [10, 3]
00000000: c4f0 aeb5 9840 e8b1 4495 5fb1 151b 0b32
00000010: 10ec f42f 852d 3fac 5006 4b2c ca49 80b3
00000020: aedd cf30 488d 11ab 7efc 2aae ecd4 44ac
00000030: 0a5e ac36 d2d8 55b4 9891 2bb2 6f7e 9ba9
00000040: 09f1 64ae b887 8532 d993 2d32 2fc8 8db6
00000050: 4273 e233 a46e 13b0 eed0 b4b4 c98b 49b5
00000060: 8e69 bb32 f202 9834 d808 bb2c 39e5 b7b1
00000070: 7d23 a9ac ccb6 1036
-1.3034082e-06 -6.759432e-09 -3.2535619e-09 8.097023e-09 4.4551074e-10 -2.7168e-12 2.885154e-12 -5.9738866e-08
1.5124237e-09 -5.1710415e-13 -3.8877783e-11 -2.797147e-12 5.136947e-06 -1.991605e-07 -9.986614e-09 -6.9053155e-14
-5.205528e-11 1.5544956e-08 1.0103542e-08 -4.225432e-06 1.05449104e-07 -5.363552e-10 -3.367963e-07 -7.508175e-07
2.1817666e-08 2.831435e-07 5.3158415e-12 -5.3520606e-09 -4.807209e-12 2.1564074e-06

module.hid1.bias f4 [10]
00000000: 129e 8532 dce4 e8b4 7d73 f635 888a b6ab
00000010: a897 5934 4267 00ae bff0 3133 81c1 4c2f
00000020: 8d03 0137 d167 192d
1.555512e-08 -4.3379885e-07 1.836204e-06 -1.2970328e-12 2.0264872e-07 -2.9195542e-11 4.142998e-08 1.8622438e-10
7.689826e-06 8.720095e-12

module.hid2.weight f4 [10, 10]
00000000: c121 b634 75f9 0329 0700 562f e7d3 d130
00000010: 1c6f 712c 6010 f7ae a23a 5b37 aa13 a82f
00000020: 979e ca36 7c3d 952b 0bb2 6532 1fa8 6332
00000030: 88a5 9eb1 702c df30 61ff 9d35 a201 8b31
00000040: fe44 16ae 84d3 3f35 0391 ceae efff 2baf
00000050: a73e 1b33 d42f bcb5 642f 18b2 488e 2b31
00000060: e6fc 1cb2 1a10 0f2b af34 75b2 7e86 bb2b
00000070: 32e3 72b1 3cda 87aa 7b29 54ae 56b4 d733
00000080: 804e 98af 489b b42d 704b d536 972e 95aa
00000090: 7cdd 28ab 44cd a3ac 65f9 922e 17df 002a
000000a0: 81d7 2aae e4ed 1cb6 1f11 7933 da74 4db4
000000b0: df32 3830 adbf 3c32 9865 9eb7 5a94 1d34
000000c0: c817 41b4 a117 c72b dcca 1f2f 8697 18ae
000000d0: af26 bdae f210 0b30 68ed 2ab0 f936 ec31
000000e0: 8b64 92ac 13a3 6bae ec93 5c35 53aa a434
000000f0: c884 82ad 5e7d 80ab 3e8d aab3 6b16 f231
00000100: d7bc 7f2e 41ba 1ab3 ec0a 5f35 2a9a 2ead
00000110: 5d2f 99b4 174e 08b3 b50a 52aa bc8a b933
00000120: 7838 df2e 9727 432d 8be2 09ae aed5 6aad
00000130: da27 2ead 47ee da2b 6b94 13b0 1716 23af
00000140: 4652 8a31 be97 1133 2ccf 76b6 9b3b dfaa
00000150: 06b6 0a2c c187 4735 f1bf b531 d2c2 0333
00000160: e577 0eb4 13e2 1db0 3796 0a2e 2458 34b3
00000170: 5f8a 3e31 4937 85ae fcc7 e135 f482 9437
00000180: c4b8 a0b7 df95 3db7 cec6 9936 b171 912b
3.39247e-07 2.9304213e-14 1.9463196e-10 1.5266978e-09 3.4309838e-12 -1.12351684e-10 1.3067069e-05 3.0572994e-10
6.0385314e-06 1.0604152e-12 1.3370037e-08 1.3251365e-08 -4.617224e-09 1.6238015e-09 1.1771737e-06 4.045618e-09
-3.416733e-11 7.146084e-07 -9.393555e-11 -1.5643285e-10 3.614573e-08 -1.4021011e-06 -8.85834e-09 2.4964653e-09
-9.1378975e-09 5.082615e-13 -1.4272856e-08 1.3324478e-12 -3.534478e-09 -2.4132248e-13 -4.824006e-11 1.00445206e-07
-2.7704417e-10 2.053259e-11 6.3566767e-06 -2.6500045e-13 -5.999296e-13 -4.6555277e-12 6.683613e-11 1.1446084e-13
-3.884493e-11 -2.3384282e-06 5.7990402e-08 -1.9134623e-07 6.70111e-10 1.0986622e-08 -1.8882376e-05 1.4675734e-07
-1.7983177e-07 1.4146359e-12 1.4533036e-10 -3.469538e-11 -8.6015965e-11 5.0591986e-10 -6.2183014e-10 6.8747537e-09
-4.160732e-12 -5.3577653e-11 8.217164e-07 3.0671308e-07 -1.4838256e-11 -9.129743e-13 -7.941934e-08 7.0456756e-09
5.814801e-11 -3.6025316e-08 8.3089867e-07 -9.924986e-12 -2.8532932e-07 -3.173599e-08 -1.8655462e-13 8.6399695e-08
1.0150897e-10 1.1093257e-11 -3.1351404e-11 -1.33488064e-11 -9.899604e-12 1.5555967e-12 -5.3689203e-10 -1.4832612e-10
4.025682e-09 3.3898452e-08 -3.6777446e-06 -3.9654117e-13 1.9712023e-12 7.4330825e-07 5.2896145e-09 3.0678002e-08
-1.3268398e-07 -5.743754e-10 3.1510985e-11 -4.198968e-08 2.7727294e-09 -6.0579604e-11 1.682201e-06 1.7703955e-05
-1.9159525e-05 -1.1300172e-05 4.5828992e-06 1.0334425e-12

module.hid2.bias f4 [10]
00000000: 9fae 2932 817c a5b4 f498 edad 2d12 b82f
00000010: 8a98 80af 6903 84af 0c5f 88ad bfa5 b2a8
00000020: 7ac0 c9b0 53c3 f931
9.876799e-09 -3.0824233e-07 -2.7011705e-11 3.348232e-10 -2.339145e-10 -2.4013083e-10 -1.550362e-11 -1.983385e-14
-1.467938e-09 7.2690596e-09

module.oupt.weight f4 [1, 10]
00000000: 161d 2cb2 a17c a534 a7c2 042e 7d2a b3af
00000010: 9dc0 d62f 7728 032f 62ef 7aad 4164 0229
00000020: 886f c930 3a66 f3b1
-1.0018331e-08 3.0824324e-07 3.018621e-11 -3.25901e-10 3.9063233e-10 1.1928757e-10 -1.4264008e-11 2.8952755e-14
1.4656374e-09 -7.0838526e-09
