circular_cylinder/Train/neural_net/models/0.001_nn_regression.pth (torch, 1859 bytes, 3 tensors)

linear.weight f4 [10, 3]
000000 27 3a 93 bd a5 1c 0c 3f 8a b9 49 3c a3 e2 c3 3d
       -0.07188826 0.5473121 0.012312302 0.09564712
000010 d6 bc da be 87 19 00 3c 32 32 e6 bd 69 83 5b 3f
       -0.42722195 0.007818586 -0.11240043 0.8574739
000020 0c cd fe 3c 1c 2c e9 bc b5 e2 52 3e cc 61 19 3d
       0.031103633 -0.028463416 0.20594294 0.037446782
000030 02 07 d2 bc 58 f2 3d 3e 8c 4a 0a 3d a6 ed 0c 80
       -0.025638107 0.18549478 0.0337625 -1.187278e-39
000040 85 57 52 00 5b 34 02 00 32 5d 10 80 ca 40 72 00
       7.561907e-39 2.02453e-40 -1.5028e-39 1.0492488e-38
000050 8e a0 09 00 74 b8 86 3d 8c b1 8f be f7 af 04 3c
       8.84116e-40 0.065781504 -0.28065145 0.008098594
000060 ed 5c 88 bd 51 b4 01 3f 1c fa 50 3c 18 c8 1f 3d
       -0.06658349 0.50665766 0.012754943 0.039009184
000070 97 92 f9 bd de d5 8d 3e
       -0.12186163 0.2770223

linear.bias f4 [10]
000000 f4 96 ef 3c f4 ed 33 3e bf 62 d2 3d c4 1a 82 bc
       0.029246785 0.1757124 0.102727406 -0.015881903
000010 c2 6b 6a bc 51 fe 0c 80 1f d2 06 80 7a 52 e7 3d
       -0.014307918 -1.193257e-39 -6.2639e-40 0.11295028
000020 66 5a 93 3c af cb 9b bd
       0.017987441 -0.07607209

oupt.weight f4 [1, 10]
000000 3b 0c 0d 3f ba 9a e9 be 2e 8b 5c 3f 49 d6 58 3e
       0.5509679 -0.4562586 0.8614987 0.21175493
000010 3f 51 43 3e f3 cd 3e 00 34 3e 53 00 2f 4d 9b be
       0.19073962 5.767681e-39 7.64466e-39 -0.30332324
000020 3f a4 02 3f ce 56 a1 be
       0.5103187 -0.3151154
