circular_cylinder/Train/neural_net/models/0.001_nn_regression.pth (torch, 1859 bytes, 3 tensors)

linear.weight f4 [10, 3]
000000 12 d0 26 bc f9 97 80 3e 97 e3 01 bd 49 eb 48 bc
       -0.010181444 0.25115946 -0.031711187 -0.012263128
000010 2e db 64 bf 69 59 1a bd 04 a9 1f bd da c8 fe 3e
       -0.8939694 -0.037682924 -0.038979545 0.49762613
000020 d0 80 34 bd d3 9b 2e bd 8c ad b3 3e 52 4c 38 bd
       -0.044068158 -0.042629074 0.35093343 -0.04499466
000030 7c f0 89 bc 10 fa ca 3c 83 34 36 bc 2f ad a2 3c
       -0.016838305 0.024777442 -0.011120918 0.019857971
000040 20 ce e5 3e 12 11 89 bd 0f 29 af 3c 3d 1f e6 3e
       0.44883823 -0.06692709 0.021381883 0.44945708
000050 13 e5 8a bd 69 03 8b bc 8c a7 0a bf 84 d9 a2 bd
       -0.06781974 -0.0169694 -0.54161906 -0.07951644
000060 43 45 02 bc 0b 87 5f 3e 0c ad e4 bc c6 7e ed 3a
       -0.007951084 0.21828859 -0.027914546 0.0018119446
000070 b5 de 0b bd fd c8 b2 3d
       -0.034147937 0.08729742

linear.bias f4 [10]
000000 6c 4c 02 3d fa 09 c6 3e 98 f4 ff 3d d8 49 57 3d
       0.031811163 0.38679487 0.124978244 0.052560657
000010 6c 24 0f bc 49 d3 af 3d 83 11 ae 3d e0 d5 86 3e
       -0.008736711 0.08585221 0.08499434 0.2633505
000020 35 02 c5 3c c0 1c d8 bc
       0.024048904 -0.026380897

oupt.weight f4 [1, 10]
000000 45 0c 81 3e 3b 18 71 bf ca dc fc 3e d8 70 b3 3e
       0.25204673 -0.941776 0.493872 0.3504703
000010 34 97 04 3d 3c 73 e7 3e 79 e5 e7 3e 37 41 15 bf
       0.03237076 0.45205104 0.4529226 -0.58302635
000020 4c c0 60 3e ec d8 bb bd
       0.21948355 -0.09172234
