circular_cylinder/Train/neural_net/models/0.0001_nn_regression.pth (torch, 1859 bytes, 3 tensors)

linear.weight f4 [10, 3]
00000000: 3f6d 95bd 3b7d 213e d51f 1e3e fd4b 593c
00000010: daa7 8dbf 84b6 dd3c bd34 dabd ebd0 8f3e
00000020: d56b 8b3e ac0c 36be 5b1b 91be 2f43 913e
00000030: 1ca6 3abb de0a f43e 5f25 53bf 1b54 8d3e
00000040: 799b bdbd 5bfa 27bd bb29 7bbc 66f0 8c3e
00000050: 91e3 3dbf 321b 2abd 66f7 a8be cd92 08be
00000060: 9bd8 83bd f7d8 1b3e a41d 4e3e 4c2e c63c
00000070: c31f a33d 39d1 ff3e
-0.07296228 0.15770428 0.1544183 0.013262746 -1.1066849 0.02706457 -0.1065459 0.2808908
0.27230707 -0.17778271 -0.28341183 0.2837157 -0.0028480357 0.4766454 -0.824789 0.2760323
-0.0925817 -0.041010242 -0.015329774 0.2752716 -0.74175364 -0.04152984 -0.3300125 -0.1333725
-0.064377986 0.15219484 0.20128495 0.024191998 0.079650424 0.49964312

linear.bias f4 [10]
00000000: a846 803e d4d4 003f 7d5a db3e b092 65bd
00000010: d800 b03e 2930 103e c6fc 713e 5be0 623e
00000020: 8282 3e3e e8c5 fdbe
0.25053906 0.5032475 0.42842475 -0.056048095 0.34375644 0.14080872 0.23631582 0.22155897
0.18604472 -0.49565053

oupt.weight f4 [1, 10]
00000000: 8e3a be3e fa53 98bf 1fbb 1d3f 2562 f0be
00000010: c64c 923f e8d3 a13e 09b9 78bf 412f e8be
00000020: f2d1 a53e 1d64 3bbf
0.3715405 -1.1900628 0.6161365 -0.46949878 1.1429679 0.31606984 -0.9715734 -0.45348552
0.32386738 -0.73199636
