circular_cylinder/Train/neural_net/models/0.0001_nn_regression.pth (torch, 1859 bytes, 3 tensors)

linear.weight f4 [10, 3]
0	0xbdba5157	-0.090975456
1	0x3e95bbcf	0.2924485
2	0x3e2c57bb	0.16830342
3	0x3dc211df	0.09476065
4	0xbefd58ec	-0.49481905
5	0xbd83ef27	-0.06442099
6	0xbe0ab8d8	-0.13547075
7	0x3f219922	0.6312429
8	0x3ea00101	0.31250766
9	0xbe188a14	-0.14896423
10	0xbf12a0ec	-0.572768
11	0x3e1ee6f9	0.15517797
12	0xbec89a98	-0.39180446
13	0x3eb557f6	0.3541867
14	0xbf1a2a9b	-0.6022126
15	0x3e81e5c1	0.253706
16	0xbe78b5f6	-0.24288163
17	0x3e619d11	0.22032572
18	0xbd873c07	-0.06603246
19	0x3dd4db8d	0.103934385
20	0xbf2f3804	-0.6844485
21	0x3d783d73	0.060605478
22	0xbe485499	-0.19563521
23	0xbe0af111	-0.13568522
24	0xbd9d041b	-0.07666799
25	0x3e91d3ed	0.28482
26	0x3e9d13fb	0.30679306
27	0x3ed12299	0.40846708
28	0xbf1123f2	-0.56695473
29	0x3f03c325	0.5146964

linear.bias f4 [10]
0	0x3e45a579	0.19301404
1	0x3e96d09b	0.29456028
2	0x3ec3e9cf	0.3826432
3	0x3aad7532	0.001323378
4	0x3e56632e	0.20936272
5	0x3aa76604	0.0012771492
6	0x3e83d028	0.25744748
7	0x3ea8456e	0.3286547
8	0x3de39564	0.111124784
9	0x3b4d2c3b	0.003130688

oupt.weight f4 [1, 10]
0	0x3efd2284	0.49440396
1	0xbeca3f37	-0.39501354
2	0x3f39d2da	0.7258736
3	0xbf1e1b45	-0.6176036
4	0x3f75d2f8	0.9602504
5	0xbee6c55a	-0.45072442
6	0xbf5980b0	-0.84961987
7	0xbeb51bdf	-0.35372826
8	0x3ed7f17d	0.42176428
9	0xbf3cb1f6	-0.73709047
