circular_cylinder/Train/neural_net/models/0.01_nn_regression.pth (torch, 1859 bytes, 3 tensors)

linear.weight f4 [10, 3]
0	0xb1840470	-3.84221e-09
1	0xb3047e1e	-3.0848348e-08
2	0xb12ce471	-2.5159148e-09
3	0x39331800	0.00017079711
4	0x3b02e0c8	0.0019970406
5	0xb9e05c87	-0.00042793548
6	0x399eb99a	0.00030274392
7	0xbba898cc	-0.005145168
8	0xbb053498	-0.0020325538
9	0x3c42eb2b	0.011896889
10	0x3f99a226	1.2002609
11	0x3c70d47e	0.0146991
12	0x9f12af3e	-3.106166e-20
13	0xa1785651	-8.4139907e-19
14	0x202feb73	1.490098e-19
15	0xb9d833a6	-0.00041237212
16	0xb435becf	-1.6926354e-07
17	0x3660727e	3.3445244e-06
18	0x3762ae50	1.3511235e-05
19	0x3826c6aa	3.9762504e-05
20	0x366272ae	3.3743377e-06
21	0x34847bff	2.4677135e-07
22	0x36017e74	1.9296103e-06
23	0x351bec39	5.808575e-07
24	0xb724a804	-9.814281e-06
25	0x3893060c	7.0106325e-05
26	0x370774bb	8.0738055e-06
27	0x3676025a	3.6658225e-06
28	0x39b26c51	0.00034031508
29	0x389d84a7	7.511052e-05

linear.bias f4 [10]
0	0x324bf240	1.1871236e-08
1	0x3a225d8d	0.000619375
2	0x3b8f6f66	0.0043772934
3	0x3c62ced8	0.013843261
4	0x20d33540	3.5780028e-19
5	0x36b8195e	5.4865804e-06
6	0x37b1e357	2.1205908e-05
7	0xb63acdf7	-2.7836047e-06
8	0x3903309d	0.00012511243
9	0x375aca14	1.30408625e-05

oupt.weight f4 [1, 10]
0	0xb35d1a76	-5.147964e-08
1	0x3ab10cbb	0.0013507822
2	0xbbee25dc	-0.007267697
3	0x3f999a09	1.2000133
4	0xa14a82db	-6.861345e-19
5	0xb5aaae9a	-1.2716803e-06
6	0xb72c8b28	-1.0284399e-05
7	0x34c4ccd5	3.665688e-07
8	0x38bb2fe7	8.9257774e-05
9	0x39a4b5a5	0.00031415853
