circular_cylinder/Train/neural_net/models/0.0_nn_regression.pth (torch, 1787 bytes, 3 tensors)

linear.weight f4 [10, 3]
000000 09 a4 2d 3e fe fa 5d 3e 51 4d 06 3e db 77 cb 3e
       0.16957106 0.21677777 0.13115431 0.3973988
000010 1f 1d 82 bf de 68 da 3d 73 da 7b be 40 d7 43 3f
       -1.0165137 0.10664533 -0.2459505 0.7650032
000020 1e 40 a5 3e 94 c7 90 bd 45 fa 23 3e 7e 52 e9 3c
       0.3227548 -0.070693165 0.16013439 0.028481718
000030 e3 ec 57 3e d2 64 66 be a5 6a 2c bd 27 e6 54 bd
       0.21086459 -0.22499397 -0.04209389 -0.051977303
000040 38 62 ab 3d 2b 27 17 bb 9f b6 d1 bd 97 c2 da 3c
       0.08368343 -0.0023064117 -0.1023991 0.026704116
000050 e1 00 13 bf 72 88 b2 be e4 30 c6 bd f1 02 7f be
       -0.57423216 -0.34869725 -0.09677294 -0.24903466
000060 dc 79 0d be aa 4e a6 3e db b0 d1 3e 09 45 e1 3f
       -0.13816017 0.3248189 0.40955243 1.7599193
000070 3e 40 42 bf 2d 29 4a 3f
       -0.75879276 0.7896908

linear.bias f4 [10]
000000 40 1d 49 3e 4f 34 04 3f 92 92 d4 3e ec aa 06 bf
       0.19640064 0.51642317 0.41518074 -0.52604556
000010 f4 87 0c bf 38 94 8e be f0 27 6c 3e 12 f4 c4 bd
       -0.5489495 -0.27847457 0.2306211 -0.09616865
000020 c1 d9 d7 3d 54 2d 05 3c
       0.1053958 0.008128483

oupt.weight f4 [1, 10]
000000 c8 92 1e 3f 64 e0 a7 be e5 78 3c 3f f8 68 75 3b
       0.6194272 -0.32788384 0.7362197 0.00374466
000010 b2 97 2a be 66 72 26 3e bb 02 1c be eb 78 be 3d
       -0.1665943 0.16254577 -0.15235417 0.09300407
000020 2f 01 e9 3e a0 b2 2d bf
       0.45508716 -0.67850685
