circular_cylinder/Train/neural_net/models/0.0_nn_regression.pth (torch, 1787 bytes, 3 tensors)

linear.weight f4 [10, 3]
0	0x3e9fb7e6	0.3119499
1	0xbe709293	-0.23493414
2	0x3d9330a4	0.07187012
3	0x3d18f3ec	0.037341997
4	0xbfddc6c6	-1.7326286
5	0x3d7593a0	0.05995524
6	0xbce72198	-0.028214261
7	0x3f094955	0.5362752
8	0x3da44bbc	0.08022258
9	0xbd90c794	-0.070693165
10	0x3e23fa45	0.16013439
11	0x3ce9527e	0.028481718
12	0x3e57ece3	0.21086459
13	0xbe6664d2	-0.22499397
14	0xbd2c6aa5	-0.04209389
15	0xbd54e627	-0.051977303
16	0x3dab6238	0.08368343
17	0xbb17272b	-0.0023064117
18	0xbe5d7ff9	-0.21630849
19	0xbf5eea29	-0.8707605
20	0xbdd058ab	-0.10173162
21	0xbf37bcc6	-0.7177242
22	0x3e47dce8	0.19517863
23	0xbf0f9845	-0.5609172
24	0x3d811cf2	0.06304349
25	0x3dd276a0	0.10276532
26	0x3e3fb1b8	0.18720138
27	0x3fabd2b3	1.3423675
28	0xbe02e263	-0.12781672
29	0x3f3aaba3	0.72918147

linear.bias f4 [10]
0	0x3f13a616	0.576753
1	0x3f3d8bfd	0.7404173
2	0x3ef9277f	0.48662946
3	0xbf06aaec	-0.52604556
4	0xbf0c87f4	-0.5489495
5	0xbe8e9438	-0.27847457
6	0x3e7f1de1	0.24913742
7	0x3e713576	0.2355555
8	0x3e2d8178	0.1694392
9	0xbe89da00	-0.26924133

oupt.weight f4 [1, 10]
0	0x3f864570	1.0489941
1	0xbf74c2fc	-0.9561002
2	0x3f08f36c	0.5349643
3	0x3b7568f8	0.00374466
4	0xbe2a97b2	-0.1665943
5	0x3e267266	0.16254577
6	0xbf0d1547	-0.5511059
7	0x3f0e7828	0.55652094
8	0x3e8c6ecb	0.27428278
9	0xbe41191c	-0.18857235
