circular_cylinder/Train/neural_net/models/10_nn_regression.pth (torch, 1857 bytes, 3 tensors)

linear.weight f4 [10, 3]
2.0473746e-05 0.0011788396 -0.0010083701 8.174964e-06 -0.00072261936 -0.0004534066 0.00020068687 -1.2797588e-05
-7.299059e-05 4.115015e-05 -3.87855e-06 8.011797e-06 3.396518e-07 -1.2295139e-05 1.5421369e-05 0.00011484479
0.0005398073 0.00011856464 9.881278e-07 1.3775877e-05 -1.3543488e-05 7.268332e-05 -0.001071275 0.00097556284
-1.1741865e-05 -3.0700742e-06 2.538158e-05 -5.6356683e-05 -1.2045999e-05 5.1951778e-05
00000000: 09bf ab37 4b83 9a3a 492b 84ba 3427 0937
00000010: 2a6e 3dba 34b7 edb9 796f 5239 39b5 56b7
00000020: 8612 99b8 a398 2c38 7e24 82b6 686a 0637
00000030: 6359 b634 3847 4eb7 235d 8137 d4d8 f038
00000040: db81 0d3a e8a5 f838 d09f 8435 f11e 6737
00000050: d738 63b7 8f6d 9838 066a 8cba eabc 7f3a
00000060: edfe 44b7 7907 4eb6 87ea d437 8760 6cb8
00000070: 2c19 4ab7 cce6 5938

linear.bias f4 [10]
0.0005070496 -0.00068631 -7.5456664e-06 -1.079509e-05 -3.7857582e-05 -0.00020377162 -2.0181977e-05 -0.0011839389
6.7043286e-05 1.7647326e-05
00000000: 86eb 043a 7ce9 33ba c830 fdb6 8f1c 35b7
00000010: 45c9 1eb8 87ab 55b9 774c a9b7 662e 9bba
00000020: 9799 8c38 5809 9437

oupt.weight f4 [1, 10]
-0.00031621178 0.0006200532 -3.580756e-05 1.2822427e-05 3.2179218e-05 0.0004539773 8.148584e-06 0.0012088289
-4.0904753e-05 -9.0241165e-06
00000000: 3ac9 a5b9 118b 223a 1330 16b8 e81f 5737
00000010: 2cf8 0638 cd03 ee39 e7b5 0837 9171 9e3a
00000020: 2591 2bb8 4966 17b7
