circular_cylinder/Train/neural_net/models/1e-05_nn_regression.pth (torch, 1789 bytes, 3 tensors)

linear.weight f4 [10, 3]
000000 d1 9f de bf dd 4f 23 bf d7 87 aa 3e 01 02 f2 3f
       -1.7392522 -0.63793737 0.33306763 1.8906862
000010 a4 aa 15 bf 0c 8e 0c 3f f5 04 2d 40 e3 52 3a 3d
       -0.584635 0.54904246 2.7034276 0.045489203
000020 3c 01 56 3e ac b2 f8 3d f8 9e b3 bf fa f0 8f bf
       0.20898908 0.12143454 -1.4032888 -1.1245415
000030 f6 a7 59 3e c8 00 bc 3e 2a 30 5b 3f e7 7c 1e be
       0.21255478 0.36719346 0.8562037 -0.15477334
000040 fc 06 14 bf dc cf 15 3f e5 22 09 3f 25 29 0a 3f
       -0.5782316 0.58520293 0.5356887 0.5396903
000050 b1 24 c8 3e 51 38 b2 be c1 8c 13 3f 1f f2 62 bf
       0.39090493 -0.3480859 0.5763665 -0.886507
000060 5f d0 08 3f fb 83 74 3f 85 ea 9f 3f 75 26 c6 ab
       0.5344295 0.95513886 1.2493445 -1.407942e-12
000070 3e a3 89 2e 1e ed 37 2e
       6.259036e-11 4.1819985e-11

linear.bias f4 [10]
000000 d1 20 00 3f a7 14 0a 3f 47 4d 2a 3e 32 00 92 bd
       0.50050074 0.5393776 0.16631041 -0.071289435
000010 ea d8 97 3e c4 eb 18 bd 21 41 47 3e 30 21 eb 3d
       0.2965768 -0.03733422 0.19458438 0.114809394
000020 45 44 e6 3d e9 58 0f af
       0.1124349 -1.3037361e-10

oupt.weight f4 [1, 10]
000000 1d 93 e8 3f 43 3b 00 c0 4a 23 23 40 84 0e dd bf
       1.8169895 -2.003617 2.5490289 -1.7270055
000010 5d 09 65 bf 51 47 4d 3f 51 07 3f bf 70 96 80 3f
       -0.8946741 0.80186945 -0.7462054 1.004591
000020 e3 92 c7 3f 53 e1 62 2e
       1.5591701 5.158658e-11
