circular_cylinder/Train/neural_net/models/nn_regression.pth (torch, 1788 bytes, 3 tensors)

linear.weight f4 [10, 3]
0	0xc10a021e	-8.625517
1	0xbfa233e6	-1.2672088
2	0x3f39bf12	0.72557175
3	0x415893e7	13.536109
4	0xc00175a5	-2.0228055
5	0x3e717d42	0.23582938
6	0x4197941c	18.947319
7	0xbe8a84f0	-0.27054548
8	0x3f038d01	0.5138703
9	0xbd90c794	-0.070693165
10	0x3e23fa45	0.16013439
11	0x3ce9527e	0.028481718
12	0x3e57ece3	0.21086459
13	0xbe6664d2	-0.22499397
14	0xbd2c6aa5	-0.04209389
15	0xbd54e627	-0.051977303
16	0x3dab6238	0.08368343
17	0xbb17272b	-0.0023064117
18	0x41450188	12.312874
19	0x3f1976af	0.5994672
20	0xbed1a99f	-0.40949723
21	0xc066f515	-3.6087086
22	0x3fd7f902	1.6872866
23	0xbfe89471	-1.8170301
24	0x4165c2bd	14.360044
25	0xbfd21461	-1.6412469
26	0x3eb13a30	0.34614706
27	0x3ea0abd7	0.31381103
28	0xbf107bd0	-0.5643892
29	0x3eb74025	0.35791126

linear.bias f4 [10]
0	0x3f83c42d	1.0294243
1	0x3f867958	1.0505781
2	0x3f478d87	0.7795033
3	0xbf06aaec	-0.52604556
4	0xbf0c87f4	-0.5489495
5	0xbe8e9438	-0.27847457
6	0x3eae3c15	0.34030214
7	0x3e5296f3	0.20565395
8	0x3ed586d2	0.41704422
9	0xbe895ec8	-0.26830125

oupt.weight f4 [1, 10]
0	0x3fb20326	1.3907211
1	0xbfb1ad81	-1.3881074
2	0x3fe641f6	1.798888
3	0x3b7568f8	0.00374466
4	0xbe2a97b2	-0.1665943
5	0x3e267266	0.16254577
6	0xbebefdc0	-0.3730297
7	0x3f785349	0.97002083
8	0x3e9c3a9e	0.3051347
9	0xbd0e018b	-0.03466944
